[2021-05-16 11:52:41,909]-[main.py line:161]:Training start,img size is: 416,batchsize is: 1,work number is 0 
[2021-05-16 11:52:41,909]-[main.py line:164]:Build_Model(
  (_Build_Model__yolov4): YOLOv4(
    (backbone): MobilenetV2(
      (_MobilenetV2__submodule): _MobileNetV2(
        (features): Sequential(
          (0): Sequential(
            (0): Conv2d(3, 32, kernel_size=(3, 3), stride=(2, 2), padding=(1, 1), bias=False)
            (1): BatchNorm2d(32, eps=1e-05, momentum=0.1, affine=True, track_running_stats=True)
            (2): ReLU6(inplace=True)
          )
          (1): InvertedResidual(
            (conv): Sequential(
              (0): Conv2d(32, 32, kernel_size=(3, 3), stride=(1, 1), padding=(1, 1), groups=32, bias=False)
              (1): BatchNorm2d(32, eps=1e-05, momentum=0.1, affine=True, track_running_stats=True)
              (2): ReLU6(inplace=True)
              (3): Conv2d(32, 16, kernel_size=(1, 1), stride=(1, 1), bias=False)
              (4): BatchNorm2d(16, eps=1e-05, momentum=0.1, affine=True, track_running_stats=True)
            )
          )
          (2): InvertedResidual(
            (conv): Sequential(
              (0): Conv2d(16, 96, kernel_size=(1, 1), stride=(1, 1), bias=False)
              (1): BatchNorm2d(96, eps=1e-05, momentum=0.1, affine=True, track_running_stats=True)
              (2): ReLU6(inplace=True)
              (3): Conv2d(96, 96, kernel_size=(3, 3), stride=(2, 2), padding=(1, 1), groups=96, bias=False)
              (4): BatchNorm2d(96, eps=1e-05, momentum=0.1, affine=True, track_running_stats=True)
              (5): ReLU6(inplace=True)
              (6): Conv2d(96, 24, kernel_size=(1, 1), stride=(1, 1), bias=False)
              (7): BatchNorm2d(24, eps=1e-05, momentum=0.1, affine=True, track_running_stats=True)
            )
          )
          (3): InvertedResidual(
            (conv): Sequential(
              (0): Conv2d(24, 144, kernel_size=(1, 1), stride=(1, 1), bias=False)
              (1): BatchNorm2d(144, eps=1e-05, momentum=0.1, affine=True, track_running_stats=True)
              (2): ReLU6(inplace=True)
              (3): Conv2d(144, 144, kernel_size=(3, 3), stride=(1, 1), padding=(1, 1), groups=144, bias=False)
              (4): BatchNorm2d(144, eps=1e-05, momentum=0.1, affine=True, track_running_stats=True)
              (5): ReLU6(inplace=True)
              (6): Conv2d(144, 24, kernel_size=(1, 1), stride=(1, 1), bias=False)
              (7): BatchNorm2d(24, eps=1e-05, momentum=0.1, affine=True, track_running_stats=True)
            )
          )
          (4): InvertedResidual(
            (conv): Sequential(
              (0): Conv2d(24, 144, kernel_size=(1, 1), stride=(1, 1), bias=False)
              (1): BatchNorm2d(144, eps=1e-05, momentum=0.1, affine=True, track_running_stats=True)
              (2): ReLU6(inplace=True)
              (3): Conv2d(144, 144, kernel_size=(3, 3), stride=(2, 2), padding=(1, 1), groups=144, bias=False)
              (4): BatchNorm2d(144, eps=1e-05, momentum=0.1, affine=True, track_running_stats=True)
              (5): ReLU6(inplace=True)
              (6): Conv2d(144, 32, kernel_size=(1, 1), stride=(1, 1), bias=False)
              (7): BatchNorm2d(32, eps=1e-05, momentum=0.1, affine=True, track_running_stats=True)
            )
          )
          (5): InvertedResidual(
            (conv): Sequential(
              (0): Conv2d(32, 192, kernel_size=(1, 1), stride=(1, 1), bias=False)
              (1): BatchNorm2d(192, eps=1e-05, momentum=0.1, affine=True, track_running_stats=True)
              (2): ReLU6(inplace=True)
              (3): Conv2d(192, 192, kernel_size=(3, 3), stride=(1, 1), padding=(1, 1), groups=192, bias=False)
              (4): BatchNorm2d(192, eps=1e-05, momentum=0.1, affine=True, track_running_stats=True)
              (5): ReLU6(inplace=True)
              (6): Conv2d(192, 32, kernel_size=(1, 1), stride=(1, 1), bias=False)
              (7): BatchNorm2d(32, eps=1e-05, momentum=0.1, affine=True, track_running_stats=True)
            )
          )
          (6): InvertedResidual(
            (conv): Sequential(
              (0): Conv2d(32, 192, kernel_size=(1, 1), stride=(1, 1), bias=False)
              (1): BatchNorm2d(192, eps=1e-05, momentum=0.1, affine=True, track_running_stats=True)
              (2): ReLU6(inplace=True)
              (3): Conv2d(192, 192, kernel_size=(3, 3), stride=(1, 1), padding=(1, 1), groups=192, bias=False)
              (4): BatchNorm2d(192, eps=1e-05, momentum=0.1, affine=True, track_running_stats=True)
              (5): ReLU6(inplace=True)
              (6): Conv2d(192, 32, kernel_size=(1, 1), stride=(1, 1), bias=False)
              (7): BatchNorm2d(32, eps=1e-05, momentum=0.1, affine=True, track_running_stats=True)
            )
          )
          (7): InvertedResidual(
            (conv): Sequential(
              (0): Conv2d(32, 192, kernel_size=(1, 1), stride=(1, 1), bias=False)
              (1): BatchNorm2d(192, eps=1e-05, momentum=0.1, affine=True, track_running_stats=True)
              (2): ReLU6(inplace=True)
              (3): Conv2d(192, 192, kernel_size=(3, 3), stride=(2, 2), padding=(1, 1), groups=192, bias=False)
              (4): BatchNorm2d(192, eps=1e-05, momentum=0.1, affine=True, track_running_stats=True)
              (5): ReLU6(inplace=True)
              (6): Conv2d(192, 64, kernel_size=(1, 1), stride=(1, 1), bias=False)
              (7): BatchNorm2d(64, eps=1e-05, momentum=0.1, affine=True, track_running_stats=True)
            )
          )
          (8): InvertedResidual(
            (conv): Sequential(
              (0): Conv2d(64, 384, kernel_size=(1, 1), stride=(1, 1), bias=False)
              (1): BatchNorm2d(384, eps=1e-05, momentum=0.1, affine=True, track_running_stats=True)
              (2): ReLU6(inplace=True)
              (3): Conv2d(384, 384, kernel_size=(3, 3), stride=(1, 1), padding=(1, 1), groups=384, bias=False)
              (4): BatchNorm2d(384, eps=1e-05, momentum=0.1, affine=True, track_running_stats=True)
              (5): ReLU6(inplace=True)
              (6): Conv2d(384, 64, kernel_size=(1, 1), stride=(1, 1), bias=False)
              (7): BatchNorm2d(64, eps=1e-05, momentum=0.1, affine=True, track_running_stats=True)
            )
          )
          (9): InvertedResidual(
            (conv): Sequential(
              (0): Conv2d(64, 384, kernel_size=(1, 1), stride=(1, 1), bias=False)
              (1): BatchNorm2d(384, eps=1e-05, momentum=0.1, affine=True, track_running_stats=True)
              (2): ReLU6(inplace=True)
              (3): Conv2d(384, 384, kernel_size=(3, 3), stride=(1, 1), padding=(1, 1), groups=384, bias=False)
              (4): BatchNorm2d(384, eps=1e-05, momentum=0.1, affine=True, track_running_stats=True)
              (5): ReLU6(inplace=True)
              (6): Conv2d(384, 64, kernel_size=(1, 1), stride=(1, 1), bias=False)
              (7): BatchNorm2d(64, eps=1e-05, momentum=0.1, affine=True, track_running_stats=True)
            )
          )
          (10): InvertedResidual(
            (conv): Sequential(
              (0): Conv2d(64, 384, kernel_size=(1, 1), stride=(1, 1), bias=False)
              (1): BatchNorm2d(384, eps=1e-05, momentum=0.1, affine=True, track_running_stats=True)
              (2): ReLU6(inplace=True)
              (3): Conv2d(384, 384, kernel_size=(3, 3), stride=(1, 1), padding=(1, 1), groups=384, bias=False)
              (4): BatchNorm2d(384, eps=1e-05, momentum=0.1, affine=True, track_running_stats=True)
              (5): ReLU6(inplace=True)
              (6): Conv2d(384, 64, kernel_size=(1, 1), stride=(1, 1), bias=False)
              (7): BatchNorm2d(64, eps=1e-05, momentum=0.1, affine=True, track_running_stats=True)
            )
          )
          (11): InvertedResidual(
            (conv): Sequential(
              (0): Conv2d(64, 384, kernel_size=(1, 1), stride=(1, 1), bias=False)
              (1): BatchNorm2d(384, eps=1e-05, momentum=0.1, affine=True, track_running_stats=True)
              (2): ReLU6(inplace=True)
              (3): Conv2d(384, 384, kernel_size=(3, 3), stride=(1, 1), padding=(1, 1), groups=384, bias=False)
              (4): BatchNorm2d(384, eps=1e-05, momentum=0.1, affine=True, track_running_stats=True)
              (5): ReLU6(inplace=True)
              (6): Conv2d(384, 96, kernel_size=(1, 1), stride=(1, 1), bias=False)
              (7): BatchNorm2d(96, eps=1e-05, momentum=0.1, affine=True, track_running_stats=True)
            )
          )
          (12): InvertedResidual(
            (conv): Sequential(
              (0): Conv2d(96, 576, kernel_size=(1, 1), stride=(1, 1), bias=False)
              (1): BatchNorm2d(576, eps=1e-05, momentum=0.1, affine=True, track_running_stats=True)
              (2): ReLU6(inplace=True)
              (3): Conv2d(576, 576, kernel_size=(3, 3), stride=(1, 1), padding=(1, 1), groups=576, bias=False)
              (4): BatchNorm2d(576, eps=1e-05, momentum=0.1, affine=True, track_running_stats=True)
              (5): ReLU6(inplace=True)
              (6): Conv2d(576, 96, kernel_size=(1, 1), stride=(1, 1), bias=False)
              (7): BatchNorm2d(96, eps=1e-05, momentum=0.1, affine=True, track_running_stats=True)
            )
          )
          (13): InvertedResidual(
            (conv): Sequential(
              (0): Conv2d(96, 576, kernel_size=(1, 1), stride=(1, 1), bias=False)
              (1): BatchNorm2d(576, eps=1e-05, momentum=0.1, affine=True, track_running_stats=True)
              (2): ReLU6(inplace=True)
              (3): Conv2d(576, 576, kernel_size=(3, 3), stride=(1, 1), padding=(1, 1), groups=576, bias=False)
              (4): BatchNorm2d(576, eps=1e-05, momentum=0.1, affine=True, track_running_stats=True)
              (5): ReLU6(inplace=True)
              (6): Conv2d(576, 96, kernel_size=(1, 1), stride=(1, 1), bias=False)
              (7): BatchNorm2d(96, eps=1e-05, momentum=0.1, affine=True, track_running_stats=True)
            )
          )
          (14): InvertedResidual(
            (conv): Sequential(
              (0): Conv2d(96, 576, kernel_size=(1, 1), stride=(1, 1), bias=False)
              (1): BatchNorm2d(576, eps=1e-05, momentum=0.1, affine=True, track_running_stats=True)
              (2): ReLU6(inplace=True)
              (3): Conv2d(576, 576, kernel_size=(3, 3), stride=(2, 2), padding=(1, 1), groups=576, bias=False)
              (4): BatchNorm2d(576, eps=1e-05, momentum=0.1, affine=True, track_running_stats=True)
              (5): ReLU6(inplace=True)
              (6): Conv2d(576, 160, kernel_size=(1, 1), stride=(1, 1), bias=False)
              (7): BatchNorm2d(160, eps=1e-05, momentum=0.1, affine=True, track_running_stats=True)
            )
          )
          (15): InvertedResidual(
            (conv): Sequential(
              (0): Conv2d(160, 960, kernel_size=(1, 1), stride=(1, 1), bias=False)
              (1): BatchNorm2d(960, eps=1e-05, momentum=0.1, affine=True, track_running_stats=True)
              (2): ReLU6(inplace=True)
              (3): Conv2d(960, 960, kernel_size=(3, 3), stride=(1, 1), padding=(1, 1), groups=960, bias=False)
              (4): BatchNorm2d(960, eps=1e-05, momentum=0.1, affine=True, track_running_stats=True)
              (5): ReLU6(inplace=True)
              (6): Conv2d(960, 160, kernel_size=(1, 1), stride=(1, 1), bias=False)
              (7): BatchNorm2d(160, eps=1e-05, momentum=0.1, affine=True, track_running_stats=True)
            )
          )
          (16): InvertedResidual(
            (conv): Sequential(
              (0): Conv2d(160, 960, kernel_size=(1, 1), stride=(1, 1), bias=False)
              (1): BatchNorm2d(960, eps=1e-05, momentum=0.1, affine=True, track_running_stats=True)
              (2): ReLU6(inplace=True)
              (3): Conv2d(960, 960, kernel_size=(3, 3), stride=(1, 1), padding=(1, 1), groups=960, bias=False)
              (4): BatchNorm2d(960, eps=1e-05, momentum=0.1, affine=True, track_running_stats=True)
              (5): ReLU6(inplace=True)
              (6): Conv2d(960, 160, kernel_size=(1, 1), stride=(1, 1), bias=False)
              (7): BatchNorm2d(160, eps=1e-05, momentum=0.1, affine=True, track_running_stats=True)
            )
          )
          (17): InvertedResidual(
            (conv): Sequential(
              (0): Conv2d(160, 960, kernel_size=(1, 1), stride=(1, 1), bias=False)
              (1): BatchNorm2d(960, eps=1e-05, momentum=0.1, affine=True, track_running_stats=True)
              (2): ReLU6(inplace=True)
              (3): Conv2d(960, 960, kernel_size=(3, 3), stride=(1, 1), padding=(1, 1), groups=960, bias=False)
              (4): BatchNorm2d(960, eps=1e-05, momentum=0.1, affine=True, track_running_stats=True)
              (5): ReLU6(inplace=True)
              (6): Conv2d(960, 320, kernel_size=(1, 1), stride=(1, 1), bias=False)
              (7): BatchNorm2d(320, eps=1e-05, momentum=0.1, affine=True, track_running_stats=True)
            )
          )
        )
        (conv): Sequential(
          (0): Conv2d(320, 1280, kernel_size=(1, 1), stride=(1, 1), bias=False)
          (1): BatchNorm2d(1280, eps=1e-05, momentum=0.1, affine=True, track_running_stats=True)
          (2): ReLU6(inplace=True)
        )
      )
      (_MobilenetV2__extractor): FeatureExtractor(
        (submodule): _MobileNetV2(
          (features): Sequential(
            (0): Sequential(
              (0): Conv2d(3, 32, kernel_size=(3, 3), stride=(2, 2), padding=(1, 1), bias=False)
              (1): BatchNorm2d(32, eps=1e-05, momentum=0.1, affine=True, track_running_stats=True)
              (2): ReLU6(inplace=True)
            )
            (1): InvertedResidual(
              (conv): Sequential(
                (0): Conv2d(32, 32, kernel_size=(3, 3), stride=(1, 1), padding=(1, 1), groups=32, bias=False)
                (1): BatchNorm2d(32, eps=1e-05, momentum=0.1, affine=True, track_running_stats=True)
                (2): ReLU6(inplace=True)
                (3): Conv2d(32, 16, kernel_size=(1, 1), stride=(1, 1), bias=False)
                (4): BatchNorm2d(16, eps=1e-05, momentum=0.1, affine=True, track_running_stats=True)
              )
            )
            (2): InvertedResidual(
              (conv): Sequential(
                (0): Conv2d(16, 96, kernel_size=(1, 1), stride=(1, 1), bias=False)
                (1): BatchNorm2d(96, eps=1e-05, momentum=0.1, affine=True, track_running_stats=True)
                (2): ReLU6(inplace=True)
                (3): Conv2d(96, 96, kernel_size=(3, 3), stride=(2, 2), padding=(1, 1), groups=96, bias=False)
                (4): BatchNorm2d(96, eps=1e-05, momentum=0.1, affine=True, track_running_stats=True)
                (5): ReLU6(inplace=True)
                (6): Conv2d(96, 24, kernel_size=(1, 1), stride=(1, 1), bias=False)
                (7): BatchNorm2d(24, eps=1e-05, momentum=0.1, affine=True, track_running_stats=True)
              )
            )
            (3): InvertedResidual(
              (conv): Sequential(
                (0): Conv2d(24, 144, kernel_size=(1, 1), stride=(1, 1), bias=False)
                (1): BatchNorm2d(144, eps=1e-05, momentum=0.1, affine=True, track_running_stats=True)
                (2): ReLU6(inplace=True)
                (3): Conv2d(144, 144, kernel_size=(3, 3), stride=(1, 1), padding=(1, 1), groups=144, bias=False)
                (4): BatchNorm2d(144, eps=1e-05, momentum=0.1, affine=True, track_running_stats=True)
                (5): ReLU6(inplace=True)
                (6): Conv2d(144, 24, kernel_size=(1, 1), stride=(1, 1), bias=False)
                (7): BatchNorm2d(24, eps=1e-05, momentum=0.1, affine=True, track_running_stats=True)
              )
            )
            (4): InvertedResidual(
              (conv): Sequential(
                (0): Conv2d(24, 144, kernel_size=(1, 1), stride=(1, 1), bias=False)
                (1): BatchNorm2d(144, eps=1e-05, momentum=0.1, affine=True, track_running_stats=True)
                (2): ReLU6(inplace=True)
                (3): Conv2d(144, 144, kernel_size=(3, 3), stride=(2, 2), padding=(1, 1), groups=144, bias=False)
                (4): BatchNorm2d(144, eps=1e-05, momentum=0.1, affine=True, track_running_stats=True)
                (5): ReLU6(inplace=True)
                (6): Conv2d(144, 32, kernel_size=(1, 1), stride=(1, 1), bias=False)
                (7): BatchNorm2d(32, eps=1e-05, momentum=0.1, affine=True, track_running_stats=True)
              )
            )
            (5): InvertedResidual(
              (conv): Sequential(
                (0): Conv2d(32, 192, kernel_size=(1, 1), stride=(1, 1), bias=False)
                (1): BatchNorm2d(192, eps=1e-05, momentum=0.1, affine=True, track_running_stats=True)
                (2): ReLU6(inplace=True)
                (3): Conv2d(192, 192, kernel_size=(3, 3), stride=(1, 1), padding=(1, 1), groups=192, bias=False)
                (4): BatchNorm2d(192, eps=1e-05, momentum=0.1, affine=True, track_running_stats=True)
                (5): ReLU6(inplace=True)
                (6): Conv2d(192, 32, kernel_size=(1, 1), stride=(1, 1), bias=False)
                (7): BatchNorm2d(32, eps=1e-05, momentum=0.1, affine=True, track_running_stats=True)
              )
            )
            (6): InvertedResidual(
              (conv): Sequential(
                (0): Conv2d(32, 192, kernel_size=(1, 1), stride=(1, 1), bias=False)
                (1): BatchNorm2d(192, eps=1e-05, momentum=0.1, affine=True, track_running_stats=True)
                (2): ReLU6(inplace=True)
                (3): Conv2d(192, 192, kernel_size=(3, 3), stride=(1, 1), padding=(1, 1), groups=192, bias=False)
                (4): BatchNorm2d(192, eps=1e-05, momentum=0.1, affine=True, track_running_stats=True)
                (5): ReLU6(inplace=True)
                (6): Conv2d(192, 32, kernel_size=(1, 1), stride=(1, 1), bias=False)
                (7): BatchNorm2d(32, eps=1e-05, momentum=0.1, affine=True, track_running_stats=True)
              )
            )
            (7): InvertedResidual(
              (conv): Sequential(
                (0): Conv2d(32, 192, kernel_size=(1, 1), stride=(1, 1), bias=False)
                (1): BatchNorm2d(192, eps=1e-05, momentum=0.1, affine=True, track_running_stats=True)
                (2): ReLU6(inplace=True)
                (3): Conv2d(192, 192, kernel_size=(3, 3), stride=(2, 2), padding=(1, 1), groups=192, bias=False)
                (4): BatchNorm2d(192, eps=1e-05, momentum=0.1, affine=True, track_running_stats=True)
                (5): ReLU6(inplace=True)
                (6): Conv2d(192, 64, kernel_size=(1, 1), stride=(1, 1), bias=False)
                (7): BatchNorm2d(64, eps=1e-05, momentum=0.1, affine=True, track_running_stats=True)
              )
            )
            (8): InvertedResidual(
              (conv): Sequential(
                (0): Conv2d(64, 384, kernel_size=(1, 1), stride=(1, 1), bias=False)
                (1): BatchNorm2d(384, eps=1e-05, momentum=0.1, affine=True, track_running_stats=True)
                (2): ReLU6(inplace=True)
                (3): Conv2d(384, 384, kernel_size=(3, 3), stride=(1, 1), padding=(1, 1), groups=384, bias=False)
                (4): BatchNorm2d(384, eps=1e-05, momentum=0.1, affine=True, track_running_stats=True)
                (5): ReLU6(inplace=True)
                (6): Conv2d(384, 64, kernel_size=(1, 1), stride=(1, 1), bias=False)
                (7): BatchNorm2d(64, eps=1e-05, momentum=0.1, affine=True, track_running_stats=True)
              )
            )
            (9): InvertedResidual(
              (conv): Sequential(
                (0): Conv2d(64, 384, kernel_size=(1, 1), stride=(1, 1), bias=False)
                (1): BatchNorm2d(384, eps=1e-05, momentum=0.1, affine=True, track_running_stats=True)
                (2): ReLU6(inplace=True)
                (3): Conv2d(384, 384, kernel_size=(3, 3), stride=(1, 1), padding=(1, 1), groups=384, bias=False)
                (4): BatchNorm2d(384, eps=1e-05, momentum=0.1, affine=True, track_running_stats=True)
                (5): ReLU6(inplace=True)
                (6): Conv2d(384, 64, kernel_size=(1, 1), stride=(1, 1), bias=False)
                (7): BatchNorm2d(64, eps=1e-05, momentum=0.1, affine=True, track_running_stats=True)
              )
            )
            (10): InvertedResidual(
              (conv): Sequential(
                (0): Conv2d(64, 384, kernel_size=(1, 1), stride=(1, 1), bias=False)
                (1): BatchNorm2d(384, eps=1e-05, momentum=0.1, affine=True, track_running_stats=True)
                (2): ReLU6(inplace=True)
                (3): Conv2d(384, 384, kernel_size=(3, 3), stride=(1, 1), padding=(1, 1), groups=384, bias=False)
                (4): BatchNorm2d(384, eps=1e-05, momentum=0.1, affine=True, track_running_stats=True)
                (5): ReLU6(inplace=True)
                (6): Conv2d(384, 64, kernel_size=(1, 1), stride=(1, 1), bias=False)
                (7): BatchNorm2d(64, eps=1e-05, momentum=0.1, affine=True, track_running_stats=True)
              )
            )
            (11): InvertedResidual(
              (conv): Sequential(
                (0): Conv2d(64, 384, kernel_size=(1, 1), stride=(1, 1), bias=False)
                (1): BatchNorm2d(384, eps=1e-05, momentum=0.1, affine=True, track_running_stats=True)
                (2): ReLU6(inplace=True)
                (3): Conv2d(384, 384, kernel_size=(3, 3), stride=(1, 1), padding=(1, 1), groups=384, bias=False)
                (4): BatchNorm2d(384, eps=1e-05, momentum=0.1, affine=True, track_running_stats=True)
                (5): ReLU6(inplace=True)
                (6): Conv2d(384, 96, kernel_size=(1, 1), stride=(1, 1), bias=False)
                (7): BatchNorm2d(96, eps=1e-05, momentum=0.1, affine=True, track_running_stats=True)
              )
            )
            (12): InvertedResidual(
              (conv): Sequential(
                (0): Conv2d(96, 576, kernel_size=(1, 1), stride=(1, 1), bias=False)
                (1): BatchNorm2d(576, eps=1e-05, momentum=0.1, affine=True, track_running_stats=True)
                (2): ReLU6(inplace=True)
                (3): Conv2d(576, 576, kernel_size=(3, 3), stride=(1, 1), padding=(1, 1), groups=576, bias=False)
                (4): BatchNorm2d(576, eps=1e-05, momentum=0.1, affine=True, track_running_stats=True)
                (5): ReLU6(inplace=True)
                (6): Conv2d(576, 96, kernel_size=(1, 1), stride=(1, 1), bias=False)
                (7): BatchNorm2d(96, eps=1e-05, momentum=0.1, affine=True, track_running_stats=True)
              )
            )
            (13): InvertedResidual(
              (conv): Sequential(
                (0): Conv2d(96, 576, kernel_size=(1, 1), stride=(1, 1), bias=False)
                (1): BatchNorm2d(576, eps=1e-05, momentum=0.1, affine=True, track_running_stats=True)
                (2): ReLU6(inplace=True)
                (3): Conv2d(576, 576, kernel_size=(3, 3), stride=(1, 1), padding=(1, 1), groups=576, bias=False)
                (4): BatchNorm2d(576, eps=1e-05, momentum=0.1, affine=True, track_running_stats=True)
                (5): ReLU6(inplace=True)
                (6): Conv2d(576, 96, kernel_size=(1, 1), stride=(1, 1), bias=False)
                (7): BatchNorm2d(96, eps=1e-05, momentum=0.1, affine=True, track_running_stats=True)
              )
            )
            (14): InvertedResidual(
              (conv): Sequential(
                (0): Conv2d(96, 576, kernel_size=(1, 1), stride=(1, 1), bias=False)
                (1): BatchNorm2d(576, eps=1e-05, momentum=0.1, affine=True, track_running_stats=True)
                (2): ReLU6(inplace=True)
                (3): Conv2d(576, 576, kernel_size=(3, 3), stride=(2, 2), padding=(1, 1), groups=576, bias=False)
                (4): BatchNorm2d(576, eps=1e-05, momentum=0.1, affine=True, track_running_stats=True)
                (5): ReLU6(inplace=True)
                (6): Conv2d(576, 160, kernel_size=(1, 1), stride=(1, 1), bias=False)
                (7): BatchNorm2d(160, eps=1e-05, momentum=0.1, affine=True, track_running_stats=True)
              )
            )
            (15): InvertedResidual(
              (conv): Sequential(
                (0): Conv2d(160, 960, kernel_size=(1, 1), stride=(1, 1), bias=False)
                (1): BatchNorm2d(960, eps=1e-05, momentum=0.1, affine=True, track_running_stats=True)
                (2): ReLU6(inplace=True)
                (3): Conv2d(960, 960, kernel_size=(3, 3), stride=(1, 1), padding=(1, 1), groups=960, bias=False)
                (4): BatchNorm2d(960, eps=1e-05, momentum=0.1, affine=True, track_running_stats=True)
                (5): ReLU6(inplace=True)
                (6): Conv2d(960, 160, kernel_size=(1, 1), stride=(1, 1), bias=False)
                (7): BatchNorm2d(160, eps=1e-05, momentum=0.1, affine=True, track_running_stats=True)
              )
            )
            (16): InvertedResidual(
              (conv): Sequential(
                (0): Conv2d(160, 960, kernel_size=(1, 1), stride=(1, 1), bias=False)
                (1): BatchNorm2d(960, eps=1e-05, momentum=0.1, affine=True, track_running_stats=True)
                (2): ReLU6(inplace=True)
                (3): Conv2d(960, 960, kernel_size=(3, 3), stride=(1, 1), padding=(1, 1), groups=960, bias=False)
                (4): BatchNorm2d(960, eps=1e-05, momentum=0.1, affine=True, track_running_stats=True)
                (5): ReLU6(inplace=True)
                (6): Conv2d(960, 160, kernel_size=(1, 1), stride=(1, 1), bias=False)
                (7): BatchNorm2d(160, eps=1e-05, momentum=0.1, affine=True, track_running_stats=True)
              )
            )
            (17): InvertedResidual(
              (conv): Sequential(
                (0): Conv2d(160, 960, kernel_size=(1, 1), stride=(1, 1), bias=False)
                (1): BatchNorm2d(960, eps=1e-05, momentum=0.1, affine=True, track_running_stats=True)
                (2): ReLU6(inplace=True)
                (3): Conv2d(960, 960, kernel_size=(3, 3), stride=(1, 1), padding=(1, 1), groups=960, bias=False)
                (4): BatchNorm2d(960, eps=1e-05, momentum=0.1, affine=True, track_running_stats=True)
                (5): ReLU6(inplace=True)
                (6): Conv2d(960, 320, kernel_size=(1, 1), stride=(1, 1), bias=False)
                (7): BatchNorm2d(320, eps=1e-05, momentum=0.1, affine=True, track_running_stats=True)
              )
            )
          )
          (conv): Sequential(
            (0): Conv2d(320, 1280, kernel_size=(1, 1), stride=(1, 1), bias=False)
            (1): BatchNorm2d(1280, eps=1e-05, momentum=0.1, affine=True, track_running_stats=True)
            (2): ReLU6(inplace=True)
          )
        )
      )
    )
    (spp): SpatialPyramidPooling(
      (head_conv): Sequential(
        (0): Conv(
          (conv): Sequential(
            (0): Conv2d(1280, 640, kernel_size=(1, 1), stride=(1, 1), bias=False)
            (1): BatchNorm2d(640, eps=1e-05, momentum=0.1, affine=True, track_running_stats=True)
            (2): LeakyReLU(negative_slope=0.01)
          )
        )
        (1): Conv(
          (conv): Sequential(
            (0): Conv2d(640, 1280, kernel_size=(3, 3), stride=(1, 1), padding=(1, 1), bias=False)
            (1): BatchNorm2d(1280, eps=1e-05, momentum=0.1, affine=True, track_running_stats=True)
            (2): LeakyReLU(negative_slope=0.01)
          )
        )
        (2): Conv(
          (conv): Sequential(
            (0): Conv2d(1280, 640, kernel_size=(1, 1), stride=(1, 1), bias=False)
            (1): BatchNorm2d(640, eps=1e-05, momentum=0.1, affine=True, track_running_stats=True)
            (2): LeakyReLU(negative_slope=0.01)
          )
        )
      )
      (maxpools): ModuleList(
        (0): MaxPool2d(kernel_size=5, stride=1, padding=2, dilation=1, ceil_mode=False)
        (1): MaxPool2d(kernel_size=9, stride=1, padding=4, dilation=1, ceil_mode=False)
        (2): MaxPool2d(kernel_size=13, stride=1, padding=6, dilation=1, ceil_mode=False)
      )
    )
    (panet): PANet(
      (feature_transform3): Conv(
        (conv): Sequential(
          (0): Conv2d(32, 16, kernel_size=(1, 1), stride=(1, 1), bias=False)
          (1): BatchNorm2d(16, eps=1e-05, momentum=0.1, affine=True, track_running_stats=True)
          (2): LeakyReLU(negative_slope=0.01)
        )
      )
      (feature_transform4): Conv(
        (conv): Sequential(
          (0): Conv2d(96, 48, kernel_size=(1, 1), stride=(1, 1), bias=False)
          (1): BatchNorm2d(48, eps=1e-05, momentum=0.1, affine=True, track_running_stats=True)
          (2): LeakyReLU(negative_slope=0.01)
        )
      )
      (resample5_4): Upsample(
        (upsample): Sequential(
          (0): Conv(
            (conv): Sequential(
              (0): Conv2d(640, 48, kernel_size=(1, 1), stride=(1, 1), bias=False)
              (1): BatchNorm2d(48, eps=1e-05, momentum=0.1, affine=True, track_running_stats=True)
              (2): LeakyReLU(negative_slope=0.01)
            )
          )
          (1): Upsample(scale_factor=2.0, mode=nearest)
        )
      )
      (resample4_3): Upsample(
        (upsample): Sequential(
          (0): Conv(
            (conv): Sequential(
              (0): Conv2d(48, 16, kernel_size=(1, 1), stride=(1, 1), bias=False)
              (1): BatchNorm2d(16, eps=1e-05, momentum=0.1, affine=True, track_running_stats=True)
              (2): LeakyReLU(negative_slope=0.01)
            )
          )
          (1): Upsample(scale_factor=2.0, mode=nearest)
        )
      )
      (resample3_4): Downsample(
        (downsample): Conv(
          (conv): Sequential(
            (0): Conv2d(16, 48, kernel_size=(3, 3), stride=(2, 2), padding=(1, 1), bias=False)
            (1): BatchNorm2d(48, eps=1e-05, momentum=0.1, affine=True, track_running_stats=True)
            (2): LeakyReLU(negative_slope=0.01)
          )
        )
      )
      (resample4_5): Downsample(
        (downsample): Conv(
          (conv): Sequential(
            (0): Conv2d(48, 640, kernel_size=(3, 3), stride=(2, 2), padding=(1, 1), bias=False)
            (1): BatchNorm2d(640, eps=1e-05, momentum=0.1, affine=True, track_running_stats=True)
            (2): LeakyReLU(negative_slope=0.01)
          )
        )
      )
      (downstream_conv5): Sequential(
        (0): Conv(
          (conv): Sequential(
            (0): Conv2d(2560, 640, kernel_size=(1, 1), stride=(1, 1), bias=False)
            (1): BatchNorm2d(640, eps=1e-05, momentum=0.1, affine=True, track_running_stats=True)
            (2): LeakyReLU(negative_slope=0.01)
          )
        )
        (1): Conv(
          (conv): Sequential(
            (0): Conv2d(640, 1280, kernel_size=(3, 3), stride=(1, 1), padding=(1, 1), bias=False)
            (1): BatchNorm2d(1280, eps=1e-05, momentum=0.1, affine=True, track_running_stats=True)
            (2): LeakyReLU(negative_slope=0.01)
          )
        )
        (2): Conv(
          (conv): Sequential(
            (0): Conv2d(1280, 640, kernel_size=(1, 1), stride=(1, 1), bias=False)
            (1): BatchNorm2d(640, eps=1e-05, momentum=0.1, affine=True, track_running_stats=True)
            (2): LeakyReLU(negative_slope=0.01)
          )
        )
      )
      (downstream_conv4): Sequential(
        (0): Conv(
          (conv): Sequential(
            (0): Conv2d(96, 48, kernel_size=(1, 1), stride=(1, 1), bias=False)
            (1): BatchNorm2d(48, eps=1e-05, momentum=0.1, affine=True, track_running_stats=True)
            (2): LeakyReLU(negative_slope=0.01)
          )
        )
        (1): Conv(
          (conv): Sequential(
            (0): Conv2d(48, 96, kernel_size=(3, 3), stride=(1, 1), padding=(1, 1), bias=False)
            (1): BatchNorm2d(96, eps=1e-05, momentum=0.1, affine=True, track_running_stats=True)
            (2): LeakyReLU(negative_slope=0.01)
          )
        )
        (2): Conv(
          (conv): Sequential(
            (0): Conv2d(96, 48, kernel_size=(1, 1), stride=(1, 1), bias=False)
            (1): BatchNorm2d(48, eps=1e-05, momentum=0.1, affine=True, track_running_stats=True)
            (2): LeakyReLU(negative_slope=0.01)
          )
        )
        (3): Conv(
          (conv): Sequential(
            (0): Conv2d(48, 96, kernel_size=(3, 3), stride=(1, 1), padding=(1, 1), bias=False)
            (1): BatchNorm2d(96, eps=1e-05, momentum=0.1, affine=True, track_running_stats=True)
            (2): LeakyReLU(negative_slope=0.01)
          )
        )
        (4): Conv(
          (conv): Sequential(
            (0): Conv2d(96, 48, kernel_size=(1, 1), stride=(1, 1), bias=False)
            (1): BatchNorm2d(48, eps=1e-05, momentum=0.1, affine=True, track_running_stats=True)
            (2): LeakyReLU(negative_slope=0.01)
          )
        )
      )
      (downstream_conv3): Sequential(
        (0): Conv(
          (conv): Sequential(
            (0): Conv2d(32, 16, kernel_size=(1, 1), stride=(1, 1), bias=False)
            (1): BatchNorm2d(16, eps=1e-05, momentum=0.1, affine=True, track_running_stats=True)
            (2): LeakyReLU(negative_slope=0.01)
          )
        )
        (1): Conv(
          (conv): Sequential(
            (0): Conv2d(16, 32, kernel_size=(3, 3), stride=(1, 1), padding=(1, 1), bias=False)
            (1): BatchNorm2d(32, eps=1e-05, momentum=0.1, affine=True, track_running_stats=True)
            (2): LeakyReLU(negative_slope=0.01)
          )
        )
        (2): Conv(
          (conv): Sequential(
            (0): Conv2d(32, 16, kernel_size=(1, 1), stride=(1, 1), bias=False)
            (1): BatchNorm2d(16, eps=1e-05, momentum=0.1, affine=True, track_running_stats=True)
            (2): LeakyReLU(negative_slope=0.01)
          )
        )
        (3): Conv(
          (conv): Sequential(
            (0): Conv2d(16, 32, kernel_size=(3, 3), stride=(1, 1), padding=(1, 1), bias=False)
            (1): BatchNorm2d(32, eps=1e-05, momentum=0.1, affine=True, track_running_stats=True)
            (2): LeakyReLU(negative_slope=0.01)
          )
        )
        (4): Conv(
          (conv): Sequential(
            (0): Conv2d(32, 16, kernel_size=(1, 1), stride=(1, 1), bias=False)
            (1): BatchNorm2d(16, eps=1e-05, momentum=0.1, affine=True, track_running_stats=True)
            (2): LeakyReLU(negative_slope=0.01)
          )
        )
      )
      (upstream_conv4): Sequential(
        (0): Conv(
          (conv): Sequential(
            (0): Conv2d(96, 48, kernel_size=(1, 1), stride=(1, 1), bias=False)
            (1): BatchNorm2d(48, eps=1e-05, momentum=0.1, affine=True, track_running_stats=True)
            (2): LeakyReLU(negative_slope=0.01)
          )
        )
        (1): Conv(
          (conv): Sequential(
            (0): Conv2d(48, 96, kernel_size=(3, 3), stride=(1, 1), padding=(1, 1), bias=False)
            (1): BatchNorm2d(96, eps=1e-05, momentum=0.1, affine=True, track_running_stats=True)
            (2): LeakyReLU(negative_slope=0.01)
          )
        )
        (2): Conv(
          (conv): Sequential(
            (0): Conv2d(96, 48, kernel_size=(1, 1), stride=(1, 1), bias=False)
            (1): BatchNorm2d(48, eps=1e-05, momentum=0.1, affine=True, track_running_stats=True)
            (2): LeakyReLU(negative_slope=0.01)
          )
        )
        (3): Conv(
          (conv): Sequential(
            (0): Conv2d(48, 96, kernel_size=(3, 3), stride=(1, 1), padding=(1, 1), bias=False)
            (1): BatchNorm2d(96, eps=1e-05, momentum=0.1, affine=True, track_running_stats=True)
            (2): LeakyReLU(negative_slope=0.01)
          )
        )
        (4): Conv(
          (conv): Sequential(
            (0): Conv2d(96, 48, kernel_size=(1, 1), stride=(1, 1), bias=False)
            (1): BatchNorm2d(48, eps=1e-05, momentum=0.1, affine=True, track_running_stats=True)
            (2): LeakyReLU(negative_slope=0.01)
          )
        )
      )
      (upstream_conv5): Sequential(
        (0): Conv(
          (conv): Sequential(
            (0): Conv2d(1280, 640, kernel_size=(1, 1), stride=(1, 1), bias=False)
            (1): BatchNorm2d(640, eps=1e-05, momentum=0.1, affine=True, track_running_stats=True)
            (2): LeakyReLU(negative_slope=0.01)
          )
        )
        (1): Conv(
          (conv): Sequential(
            (0): Conv2d(640, 1280, kernel_size=(3, 3), stride=(1, 1), padding=(1, 1), bias=False)
            (1): BatchNorm2d(1280, eps=1e-05, momentum=0.1, affine=True, track_running_stats=True)
            (2): LeakyReLU(negative_slope=0.01)
          )
        )
        (2): Conv(
          (conv): Sequential(
            (0): Conv2d(1280, 640, kernel_size=(1, 1), stride=(1, 1), bias=False)
            (1): BatchNorm2d(640, eps=1e-05, momentum=0.1, affine=True, track_running_stats=True)
            (2): LeakyReLU(negative_slope=0.01)
          )
        )
        (3): Conv(
          (conv): Sequential(
            (0): Conv2d(640, 1280, kernel_size=(3, 3), stride=(1, 1), padding=(1, 1), bias=False)
            (1): BatchNorm2d(1280, eps=1e-05, momentum=0.1, affine=True, track_running_stats=True)
            (2): LeakyReLU(negative_slope=0.01)
          )
        )
        (4): Conv(
          (conv): Sequential(
            (0): Conv2d(1280, 640, kernel_size=(1, 1), stride=(1, 1), bias=False)
            (1): BatchNorm2d(640, eps=1e-05, momentum=0.1, affine=True, track_running_stats=True)
            (2): LeakyReLU(negative_slope=0.01)
          )
        )
      )
    )
    (predict_net): PredictNet(
      (predict_conv): ModuleList(
        (0): Sequential(
          (0): Conv(
            (conv): Sequential(
              (0): Conv2d(16, 32, kernel_size=(3, 3), stride=(1, 1), padding=(1, 1), bias=False)
              (1): BatchNorm2d(32, eps=1e-05, momentum=0.1, affine=True, track_running_stats=True)
              (2): LeakyReLU(negative_slope=0.01)
            )
          )
          (1): Conv2d(32, 75, kernel_size=(1, 1), stride=(1, 1))
        )
        (1): Sequential(
          (0): Conv(
            (conv): Sequential(
              (0): Conv2d(48, 96, kernel_size=(3, 3), stride=(1, 1), padding=(1, 1), bias=False)
              (1): BatchNorm2d(96, eps=1e-05, momentum=0.1, affine=True, track_running_stats=True)
              (2): LeakyReLU(negative_slope=0.01)
            )
          )
          (1): Conv2d(96, 75, kernel_size=(1, 1), stride=(1, 1))
        )
        (2): Sequential(
          (0): Conv(
            (conv): Sequential(
              (0): Conv2d(640, 1280, kernel_size=(3, 3), stride=(1, 1), padding=(1, 1), bias=False)
              (1): BatchNorm2d(1280, eps=1e-05, momentum=0.1, affine=True, track_running_stats=True)
              (2): LeakyReLU(negative_slope=0.01)
            )
          )
          (1): Conv2d(1280, 75, kernel_size=(1, 1), stride=(1, 1))
        )
      )
    )
  )
  (_Build_Model__head_s): Yolo_head()
  (_Build_Model__head_m): Yolo_head()
  (_Build_Model__head_l): Yolo_head()
) 
[2021-05-16 11:52:41,941]-[main.py line:166]:Train datasets number is : 5011 
[2021-05-16 11:52:50,475]-[main.py line:175]:        =======  start  training   ======      
[2021-05-16 11:54:09,644]-[main.py line:181]:===Epoch:[0/120]=== 
[2021-05-16 11:56:18,635]-[main.py line:161]:Training start,img size is: 416,batchsize is: 1,work number is 0 
[2021-05-16 11:56:18,635]-[main.py line:164]:Build_Model(
  (_Build_Model__yolov4): YOLOv4(
    (backbone): MobilenetV2(
      (_MobilenetV2__submodule): _MobileNetV2(
        (features): Sequential(
          (0): Sequential(
            (0): Conv2d(3, 32, kernel_size=(3, 3), stride=(2, 2), padding=(1, 1), bias=False)
            (1): BatchNorm2d(32, eps=1e-05, momentum=0.1, affine=True, track_running_stats=True)
            (2): ReLU6(inplace=True)
          )
          (1): InvertedResidual(
            (conv): Sequential(
              (0): Conv2d(32, 32, kernel_size=(3, 3), stride=(1, 1), padding=(1, 1), groups=32, bias=False)
              (1): BatchNorm2d(32, eps=1e-05, momentum=0.1, affine=True, track_running_stats=True)
              (2): ReLU6(inplace=True)
              (3): Conv2d(32, 16, kernel_size=(1, 1), stride=(1, 1), bias=False)
              (4): BatchNorm2d(16, eps=1e-05, momentum=0.1, affine=True, track_running_stats=True)
            )
          )
          (2): InvertedResidual(
            (conv): Sequential(
              (0): Conv2d(16, 96, kernel_size=(1, 1), stride=(1, 1), bias=False)
              (1): BatchNorm2d(96, eps=1e-05, momentum=0.1, affine=True, track_running_stats=True)
              (2): ReLU6(inplace=True)
              (3): Conv2d(96, 96, kernel_size=(3, 3), stride=(2, 2), padding=(1, 1), groups=96, bias=False)
              (4): BatchNorm2d(96, eps=1e-05, momentum=0.1, affine=True, track_running_stats=True)
              (5): ReLU6(inplace=True)
              (6): Conv2d(96, 24, kernel_size=(1, 1), stride=(1, 1), bias=False)
              (7): BatchNorm2d(24, eps=1e-05, momentum=0.1, affine=True, track_running_stats=True)
            )
          )
          (3): InvertedResidual(
            (conv): Sequential(
              (0): Conv2d(24, 144, kernel_size=(1, 1), stride=(1, 1), bias=False)
              (1): BatchNorm2d(144, eps=1e-05, momentum=0.1, affine=True, track_running_stats=True)
              (2): ReLU6(inplace=True)
              (3): Conv2d(144, 144, kernel_size=(3, 3), stride=(1, 1), padding=(1, 1), groups=144, bias=False)
              (4): BatchNorm2d(144, eps=1e-05, momentum=0.1, affine=True, track_running_stats=True)
              (5): ReLU6(inplace=True)
              (6): Conv2d(144, 24, kernel_size=(1, 1), stride=(1, 1), bias=False)
              (7): BatchNorm2d(24, eps=1e-05, momentum=0.1, affine=True, track_running_stats=True)
            )
          )
          (4): InvertedResidual(
            (conv): Sequential(
              (0): Conv2d(24, 144, kernel_size=(1, 1), stride=(1, 1), bias=False)
              (1): BatchNorm2d(144, eps=1e-05, momentum=0.1, affine=True, track_running_stats=True)
              (2): ReLU6(inplace=True)
              (3): Conv2d(144, 144, kernel_size=(3, 3), stride=(2, 2), padding=(1, 1), groups=144, bias=False)
              (4): BatchNorm2d(144, eps=1e-05, momentum=0.1, affine=True, track_running_stats=True)
              (5): ReLU6(inplace=True)
              (6): Conv2d(144, 32, kernel_size=(1, 1), stride=(1, 1), bias=False)
              (7): BatchNorm2d(32, eps=1e-05, momentum=0.1, affine=True, track_running_stats=True)
            )
          )
          (5): InvertedResidual(
            (conv): Sequential(
              (0): Conv2d(32, 192, kernel_size=(1, 1), stride=(1, 1), bias=False)
              (1): BatchNorm2d(192, eps=1e-05, momentum=0.1, affine=True, track_running_stats=True)
              (2): ReLU6(inplace=True)
              (3): Conv2d(192, 192, kernel_size=(3, 3), stride=(1, 1), padding=(1, 1), groups=192, bias=False)
              (4): BatchNorm2d(192, eps=1e-05, momentum=0.1, affine=True, track_running_stats=True)
              (5): ReLU6(inplace=True)
              (6): Conv2d(192, 32, kernel_size=(1, 1), stride=(1, 1), bias=False)
              (7): BatchNorm2d(32, eps=1e-05, momentum=0.1, affine=True, track_running_stats=True)
            )
          )
          (6): InvertedResidual(
            (conv): Sequential(
              (0): Conv2d(32, 192, kernel_size=(1, 1), stride=(1, 1), bias=False)
              (1): BatchNorm2d(192, eps=1e-05, momentum=0.1, affine=True, track_running_stats=True)
              (2): ReLU6(inplace=True)
              (3): Conv2d(192, 192, kernel_size=(3, 3), stride=(1, 1), padding=(1, 1), groups=192, bias=False)
              (4): BatchNorm2d(192, eps=1e-05, momentum=0.1, affine=True, track_running_stats=True)
              (5): ReLU6(inplace=True)
              (6): Conv2d(192, 32, kernel_size=(1, 1), stride=(1, 1), bias=False)
              (7): BatchNorm2d(32, eps=1e-05, momentum=0.1, affine=True, track_running_stats=True)
            )
          )
          (7): InvertedResidual(
            (conv): Sequential(
              (0): Conv2d(32, 192, kernel_size=(1, 1), stride=(1, 1), bias=False)
              (1): BatchNorm2d(192, eps=1e-05, momentum=0.1, affine=True, track_running_stats=True)
              (2): ReLU6(inplace=True)
              (3): Conv2d(192, 192, kernel_size=(3, 3), stride=(2, 2), padding=(1, 1), groups=192, bias=False)
              (4): BatchNorm2d(192, eps=1e-05, momentum=0.1, affine=True, track_running_stats=True)
              (5): ReLU6(inplace=True)
              (6): Conv2d(192, 64, kernel_size=(1, 1), stride=(1, 1), bias=False)
              (7): BatchNorm2d(64, eps=1e-05, momentum=0.1, affine=True, track_running_stats=True)
            )
          )
          (8): InvertedResidual(
            (conv): Sequential(
              (0): Conv2d(64, 384, kernel_size=(1, 1), stride=(1, 1), bias=False)
              (1): BatchNorm2d(384, eps=1e-05, momentum=0.1, affine=True, track_running_stats=True)
              (2): ReLU6(inplace=True)
              (3): Conv2d(384, 384, kernel_size=(3, 3), stride=(1, 1), padding=(1, 1), groups=384, bias=False)
              (4): BatchNorm2d(384, eps=1e-05, momentum=0.1, affine=True, track_running_stats=True)
              (5): ReLU6(inplace=True)
              (6): Conv2d(384, 64, kernel_size=(1, 1), stride=(1, 1), bias=False)
              (7): BatchNorm2d(64, eps=1e-05, momentum=0.1, affine=True, track_running_stats=True)
            )
          )
          (9): InvertedResidual(
            (conv): Sequential(
              (0): Conv2d(64, 384, kernel_size=(1, 1), stride=(1, 1), bias=False)
              (1): BatchNorm2d(384, eps=1e-05, momentum=0.1, affine=True, track_running_stats=True)
              (2): ReLU6(inplace=True)
              (3): Conv2d(384, 384, kernel_size=(3, 3), stride=(1, 1), padding=(1, 1), groups=384, bias=False)
              (4): BatchNorm2d(384, eps=1e-05, momentum=0.1, affine=True, track_running_stats=True)
              (5): ReLU6(inplace=True)
              (6): Conv2d(384, 64, kernel_size=(1, 1), stride=(1, 1), bias=False)
              (7): BatchNorm2d(64, eps=1e-05, momentum=0.1, affine=True, track_running_stats=True)
            )
          )
          (10): InvertedResidual(
            (conv): Sequential(
              (0): Conv2d(64, 384, kernel_size=(1, 1), stride=(1, 1), bias=False)
              (1): BatchNorm2d(384, eps=1e-05, momentum=0.1, affine=True, track_running_stats=True)
              (2): ReLU6(inplace=True)
              (3): Conv2d(384, 384, kernel_size=(3, 3), stride=(1, 1), padding=(1, 1), groups=384, bias=False)
              (4): BatchNorm2d(384, eps=1e-05, momentum=0.1, affine=True, track_running_stats=True)
              (5): ReLU6(inplace=True)
              (6): Conv2d(384, 64, kernel_size=(1, 1), stride=(1, 1), bias=False)
              (7): BatchNorm2d(64, eps=1e-05, momentum=0.1, affine=True, track_running_stats=True)
            )
          )
          (11): InvertedResidual(
            (conv): Sequential(
              (0): Conv2d(64, 384, kernel_size=(1, 1), stride=(1, 1), bias=False)
              (1): BatchNorm2d(384, eps=1e-05, momentum=0.1, affine=True, track_running_stats=True)
              (2): ReLU6(inplace=True)
              (3): Conv2d(384, 384, kernel_size=(3, 3), stride=(1, 1), padding=(1, 1), groups=384, bias=False)
              (4): BatchNorm2d(384, eps=1e-05, momentum=0.1, affine=True, track_running_stats=True)
              (5): ReLU6(inplace=True)
              (6): Conv2d(384, 96, kernel_size=(1, 1), stride=(1, 1), bias=False)
              (7): BatchNorm2d(96, eps=1e-05, momentum=0.1, affine=True, track_running_stats=True)
            )
          )
          (12): InvertedResidual(
            (conv): Sequential(
              (0): Conv2d(96, 576, kernel_size=(1, 1), stride=(1, 1), bias=False)
              (1): BatchNorm2d(576, eps=1e-05, momentum=0.1, affine=True, track_running_stats=True)
              (2): ReLU6(inplace=True)
              (3): Conv2d(576, 576, kernel_size=(3, 3), stride=(1, 1), padding=(1, 1), groups=576, bias=False)
              (4): BatchNorm2d(576, eps=1e-05, momentum=0.1, affine=True, track_running_stats=True)
              (5): ReLU6(inplace=True)
              (6): Conv2d(576, 96, kernel_size=(1, 1), stride=(1, 1), bias=False)
              (7): BatchNorm2d(96, eps=1e-05, momentum=0.1, affine=True, track_running_stats=True)
            )
          )
          (13): InvertedResidual(
            (conv): Sequential(
              (0): Conv2d(96, 576, kernel_size=(1, 1), stride=(1, 1), bias=False)
              (1): BatchNorm2d(576, eps=1e-05, momentum=0.1, affine=True, track_running_stats=True)
              (2): ReLU6(inplace=True)
              (3): Conv2d(576, 576, kernel_size=(3, 3), stride=(1, 1), padding=(1, 1), groups=576, bias=False)
              (4): BatchNorm2d(576, eps=1e-05, momentum=0.1, affine=True, track_running_stats=True)
              (5): ReLU6(inplace=True)
              (6): Conv2d(576, 96, kernel_size=(1, 1), stride=(1, 1), bias=False)
              (7): BatchNorm2d(96, eps=1e-05, momentum=0.1, affine=True, track_running_stats=True)
            )
          )
          (14): InvertedResidual(
            (conv): Sequential(
              (0): Conv2d(96, 576, kernel_size=(1, 1), stride=(1, 1), bias=False)
              (1): BatchNorm2d(576, eps=1e-05, momentum=0.1, affine=True, track_running_stats=True)
              (2): ReLU6(inplace=True)
              (3): Conv2d(576, 576, kernel_size=(3, 3), stride=(2, 2), padding=(1, 1), groups=576, bias=False)
              (4): BatchNorm2d(576, eps=1e-05, momentum=0.1, affine=True, track_running_stats=True)
              (5): ReLU6(inplace=True)
              (6): Conv2d(576, 160, kernel_size=(1, 1), stride=(1, 1), bias=False)
              (7): BatchNorm2d(160, eps=1e-05, momentum=0.1, affine=True, track_running_stats=True)
            )
          )
          (15): InvertedResidual(
            (conv): Sequential(
              (0): Conv2d(160, 960, kernel_size=(1, 1), stride=(1, 1), bias=False)
              (1): BatchNorm2d(960, eps=1e-05, momentum=0.1, affine=True, track_running_stats=True)
              (2): ReLU6(inplace=True)
              (3): Conv2d(960, 960, kernel_size=(3, 3), stride=(1, 1), padding=(1, 1), groups=960, bias=False)
              (4): BatchNorm2d(960, eps=1e-05, momentum=0.1, affine=True, track_running_stats=True)
              (5): ReLU6(inplace=True)
              (6): Conv2d(960, 160, kernel_size=(1, 1), stride=(1, 1), bias=False)
              (7): BatchNorm2d(160, eps=1e-05, momentum=0.1, affine=True, track_running_stats=True)
            )
          )
          (16): InvertedResidual(
            (conv): Sequential(
              (0): Conv2d(160, 960, kernel_size=(1, 1), stride=(1, 1), bias=False)
              (1): BatchNorm2d(960, eps=1e-05, momentum=0.1, affine=True, track_running_stats=True)
              (2): ReLU6(inplace=True)
              (3): Conv2d(960, 960, kernel_size=(3, 3), stride=(1, 1), padding=(1, 1), groups=960, bias=False)
              (4): BatchNorm2d(960, eps=1e-05, momentum=0.1, affine=True, track_running_stats=True)
              (5): ReLU6(inplace=True)
              (6): Conv2d(960, 160, kernel_size=(1, 1), stride=(1, 1), bias=False)
              (7): BatchNorm2d(160, eps=1e-05, momentum=0.1, affine=True, track_running_stats=True)
            )
          )
          (17): InvertedResidual(
            (conv): Sequential(
              (0): Conv2d(160, 960, kernel_size=(1, 1), stride=(1, 1), bias=False)
              (1): BatchNorm2d(960, eps=1e-05, momentum=0.1, affine=True, track_running_stats=True)
              (2): ReLU6(inplace=True)
              (3): Conv2d(960, 960, kernel_size=(3, 3), stride=(1, 1), padding=(1, 1), groups=960, bias=False)
              (4): BatchNorm2d(960, eps=1e-05, momentum=0.1, affine=True, track_running_stats=True)
              (5): ReLU6(inplace=True)
              (6): Conv2d(960, 320, kernel_size=(1, 1), stride=(1, 1), bias=False)
              (7): BatchNorm2d(320, eps=1e-05, momentum=0.1, affine=True, track_running_stats=True)
            )
          )
        )
        (conv): Sequential(
          (0): Conv2d(320, 1280, kernel_size=(1, 1), stride=(1, 1), bias=False)
          (1): BatchNorm2d(1280, eps=1e-05, momentum=0.1, affine=True, track_running_stats=True)
          (2): ReLU6(inplace=True)
        )
      )
      (_MobilenetV2__extractor): FeatureExtractor(
        (submodule): _MobileNetV2(
          (features): Sequential(
            (0): Sequential(
              (0): Conv2d(3, 32, kernel_size=(3, 3), stride=(2, 2), padding=(1, 1), bias=False)
              (1): BatchNorm2d(32, eps=1e-05, momentum=0.1, affine=True, track_running_stats=True)
              (2): ReLU6(inplace=True)
            )
            (1): InvertedResidual(
              (conv): Sequential(
                (0): Conv2d(32, 32, kernel_size=(3, 3), stride=(1, 1), padding=(1, 1), groups=32, bias=False)
                (1): BatchNorm2d(32, eps=1e-05, momentum=0.1, affine=True, track_running_stats=True)
                (2): ReLU6(inplace=True)
                (3): Conv2d(32, 16, kernel_size=(1, 1), stride=(1, 1), bias=False)
                (4): BatchNorm2d(16, eps=1e-05, momentum=0.1, affine=True, track_running_stats=True)
              )
            )
            (2): InvertedResidual(
              (conv): Sequential(
                (0): Conv2d(16, 96, kernel_size=(1, 1), stride=(1, 1), bias=False)
                (1): BatchNorm2d(96, eps=1e-05, momentum=0.1, affine=True, track_running_stats=True)
                (2): ReLU6(inplace=True)
                (3): Conv2d(96, 96, kernel_size=(3, 3), stride=(2, 2), padding=(1, 1), groups=96, bias=False)
                (4): BatchNorm2d(96, eps=1e-05, momentum=0.1, affine=True, track_running_stats=True)
                (5): ReLU6(inplace=True)
                (6): Conv2d(96, 24, kernel_size=(1, 1), stride=(1, 1), bias=False)
                (7): BatchNorm2d(24, eps=1e-05, momentum=0.1, affine=True, track_running_stats=True)
              )
            )
            (3): InvertedResidual(
              (conv): Sequential(
                (0): Conv2d(24, 144, kernel_size=(1, 1), stride=(1, 1), bias=False)
                (1): BatchNorm2d(144, eps=1e-05, momentum=0.1, affine=True, track_running_stats=True)
                (2): ReLU6(inplace=True)
                (3): Conv2d(144, 144, kernel_size=(3, 3), stride=(1, 1), padding=(1, 1), groups=144, bias=False)
                (4): BatchNorm2d(144, eps=1e-05, momentum=0.1, affine=True, track_running_stats=True)
                (5): ReLU6(inplace=True)
                (6): Conv2d(144, 24, kernel_size=(1, 1), stride=(1, 1), bias=False)
                (7): BatchNorm2d(24, eps=1e-05, momentum=0.1, affine=True, track_running_stats=True)
              )
            )
            (4): InvertedResidual(
              (conv): Sequential(
                (0): Conv2d(24, 144, kernel_size=(1, 1), stride=(1, 1), bias=False)
                (1): BatchNorm2d(144, eps=1e-05, momentum=0.1, affine=True, track_running_stats=True)
                (2): ReLU6(inplace=True)
                (3): Conv2d(144, 144, kernel_size=(3, 3), stride=(2, 2), padding=(1, 1), groups=144, bias=False)
                (4): BatchNorm2d(144, eps=1e-05, momentum=0.1, affine=True, track_running_stats=True)
                (5): ReLU6(inplace=True)
                (6): Conv2d(144, 32, kernel_size=(1, 1), stride=(1, 1), bias=False)
                (7): BatchNorm2d(32, eps=1e-05, momentum=0.1, affine=True, track_running_stats=True)
              )
            )
            (5): InvertedResidual(
              (conv): Sequential(
                (0): Conv2d(32, 192, kernel_size=(1, 1), stride=(1, 1), bias=False)
                (1): BatchNorm2d(192, eps=1e-05, momentum=0.1, affine=True, track_running_stats=True)
                (2): ReLU6(inplace=True)
                (3): Conv2d(192, 192, kernel_size=(3, 3), stride=(1, 1), padding=(1, 1), groups=192, bias=False)
                (4): BatchNorm2d(192, eps=1e-05, momentum=0.1, affine=True, track_running_stats=True)
                (5): ReLU6(inplace=True)
                (6): Conv2d(192, 32, kernel_size=(1, 1), stride=(1, 1), bias=False)
                (7): BatchNorm2d(32, eps=1e-05, momentum=0.1, affine=True, track_running_stats=True)
              )
            )
            (6): InvertedResidual(
              (conv): Sequential(
                (0): Conv2d(32, 192, kernel_size=(1, 1), stride=(1, 1), bias=False)
                (1): BatchNorm2d(192, eps=1e-05, momentum=0.1, affine=True, track_running_stats=True)
                (2): ReLU6(inplace=True)
                (3): Conv2d(192, 192, kernel_size=(3, 3), stride=(1, 1), padding=(1, 1), groups=192, bias=False)
                (4): BatchNorm2d(192, eps=1e-05, momentum=0.1, affine=True, track_running_stats=True)
                (5): ReLU6(inplace=True)
                (6): Conv2d(192, 32, kernel_size=(1, 1), stride=(1, 1), bias=False)
                (7): BatchNorm2d(32, eps=1e-05, momentum=0.1, affine=True, track_running_stats=True)
              )
            )
            (7): InvertedResidual(
              (conv): Sequential(
                (0): Conv2d(32, 192, kernel_size=(1, 1), stride=(1, 1), bias=False)
                (1): BatchNorm2d(192, eps=1e-05, momentum=0.1, affine=True, track_running_stats=True)
                (2): ReLU6(inplace=True)
                (3): Conv2d(192, 192, kernel_size=(3, 3), stride=(2, 2), padding=(1, 1), groups=192, bias=False)
                (4): BatchNorm2d(192, eps=1e-05, momentum=0.1, affine=True, track_running_stats=True)
                (5): ReLU6(inplace=True)
                (6): Conv2d(192, 64, kernel_size=(1, 1), stride=(1, 1), bias=False)
                (7): BatchNorm2d(64, eps=1e-05, momentum=0.1, affine=True, track_running_stats=True)
              )
            )
            (8): InvertedResidual(
              (conv): Sequential(
                (0): Conv2d(64, 384, kernel_size=(1, 1), stride=(1, 1), bias=False)
                (1): BatchNorm2d(384, eps=1e-05, momentum=0.1, affine=True, track_running_stats=True)
                (2): ReLU6(inplace=True)
                (3): Conv2d(384, 384, kernel_size=(3, 3), stride=(1, 1), padding=(1, 1), groups=384, bias=False)
                (4): BatchNorm2d(384, eps=1e-05, momentum=0.1, affine=True, track_running_stats=True)
                (5): ReLU6(inplace=True)
                (6): Conv2d(384, 64, kernel_size=(1, 1), stride=(1, 1), bias=False)
                (7): BatchNorm2d(64, eps=1e-05, momentum=0.1, affine=True, track_running_stats=True)
              )
            )
            (9): InvertedResidual(
              (conv): Sequential(
                (0): Conv2d(64, 384, kernel_size=(1, 1), stride=(1, 1), bias=False)
                (1): BatchNorm2d(384, eps=1e-05, momentum=0.1, affine=True, track_running_stats=True)
                (2): ReLU6(inplace=True)
                (3): Conv2d(384, 384, kernel_size=(3, 3), stride=(1, 1), padding=(1, 1), groups=384, bias=False)
                (4): BatchNorm2d(384, eps=1e-05, momentum=0.1, affine=True, track_running_stats=True)
                (5): ReLU6(inplace=True)
                (6): Conv2d(384, 64, kernel_size=(1, 1), stride=(1, 1), bias=False)
                (7): BatchNorm2d(64, eps=1e-05, momentum=0.1, affine=True, track_running_stats=True)
              )
            )
            (10): InvertedResidual(
              (conv): Sequential(
                (0): Conv2d(64, 384, kernel_size=(1, 1), stride=(1, 1), bias=False)
                (1): BatchNorm2d(384, eps=1e-05, momentum=0.1, affine=True, track_running_stats=True)
                (2): ReLU6(inplace=True)
                (3): Conv2d(384, 384, kernel_size=(3, 3), stride=(1, 1), padding=(1, 1), groups=384, bias=False)
                (4): BatchNorm2d(384, eps=1e-05, momentum=0.1, affine=True, track_running_stats=True)
                (5): ReLU6(inplace=True)
                (6): Conv2d(384, 64, kernel_size=(1, 1), stride=(1, 1), bias=False)
                (7): BatchNorm2d(64, eps=1e-05, momentum=0.1, affine=True, track_running_stats=True)
              )
            )
            (11): InvertedResidual(
              (conv): Sequential(
                (0): Conv2d(64, 384, kernel_size=(1, 1), stride=(1, 1), bias=False)
                (1): BatchNorm2d(384, eps=1e-05, momentum=0.1, affine=True, track_running_stats=True)
                (2): ReLU6(inplace=True)
                (3): Conv2d(384, 384, kernel_size=(3, 3), stride=(1, 1), padding=(1, 1), groups=384, bias=False)
                (4): BatchNorm2d(384, eps=1e-05, momentum=0.1, affine=True, track_running_stats=True)
                (5): ReLU6(inplace=True)
                (6): Conv2d(384, 96, kernel_size=(1, 1), stride=(1, 1), bias=False)
                (7): BatchNorm2d(96, eps=1e-05, momentum=0.1, affine=True, track_running_stats=True)
              )
            )
            (12): InvertedResidual(
              (conv): Sequential(
                (0): Conv2d(96, 576, kernel_size=(1, 1), stride=(1, 1), bias=False)
                (1): BatchNorm2d(576, eps=1e-05, momentum=0.1, affine=True, track_running_stats=True)
                (2): ReLU6(inplace=True)
                (3): Conv2d(576, 576, kernel_size=(3, 3), stride=(1, 1), padding=(1, 1), groups=576, bias=False)
                (4): BatchNorm2d(576, eps=1e-05, momentum=0.1, affine=True, track_running_stats=True)
                (5): ReLU6(inplace=True)
                (6): Conv2d(576, 96, kernel_size=(1, 1), stride=(1, 1), bias=False)
                (7): BatchNorm2d(96, eps=1e-05, momentum=0.1, affine=True, track_running_stats=True)
              )
            )
            (13): InvertedResidual(
              (conv): Sequential(
                (0): Conv2d(96, 576, kernel_size=(1, 1), stride=(1, 1), bias=False)
                (1): BatchNorm2d(576, eps=1e-05, momentum=0.1, affine=True, track_running_stats=True)
                (2): ReLU6(inplace=True)
                (3): Conv2d(576, 576, kernel_size=(3, 3), stride=(1, 1), padding=(1, 1), groups=576, bias=False)
                (4): BatchNorm2d(576, eps=1e-05, momentum=0.1, affine=True, track_running_stats=True)
                (5): ReLU6(inplace=True)
                (6): Conv2d(576, 96, kernel_size=(1, 1), stride=(1, 1), bias=False)
                (7): BatchNorm2d(96, eps=1e-05, momentum=0.1, affine=True, track_running_stats=True)
              )
            )
            (14): InvertedResidual(
              (conv): Sequential(
                (0): Conv2d(96, 576, kernel_size=(1, 1), stride=(1, 1), bias=False)
                (1): BatchNorm2d(576, eps=1e-05, momentum=0.1, affine=True, track_running_stats=True)
                (2): ReLU6(inplace=True)
                (3): Conv2d(576, 576, kernel_size=(3, 3), stride=(2, 2), padding=(1, 1), groups=576, bias=False)
                (4): BatchNorm2d(576, eps=1e-05, momentum=0.1, affine=True, track_running_stats=True)
                (5): ReLU6(inplace=True)
                (6): Conv2d(576, 160, kernel_size=(1, 1), stride=(1, 1), bias=False)
                (7): BatchNorm2d(160, eps=1e-05, momentum=0.1, affine=True, track_running_stats=True)
              )
            )
            (15): InvertedResidual(
              (conv): Sequential(
                (0): Conv2d(160, 960, kernel_size=(1, 1), stride=(1, 1), bias=False)
                (1): BatchNorm2d(960, eps=1e-05, momentum=0.1, affine=True, track_running_stats=True)
                (2): ReLU6(inplace=True)
                (3): Conv2d(960, 960, kernel_size=(3, 3), stride=(1, 1), padding=(1, 1), groups=960, bias=False)
                (4): BatchNorm2d(960, eps=1e-05, momentum=0.1, affine=True, track_running_stats=True)
                (5): ReLU6(inplace=True)
                (6): Conv2d(960, 160, kernel_size=(1, 1), stride=(1, 1), bias=False)
                (7): BatchNorm2d(160, eps=1e-05, momentum=0.1, affine=True, track_running_stats=True)
              )
            )
            (16): InvertedResidual(
              (conv): Sequential(
                (0): Conv2d(160, 960, kernel_size=(1, 1), stride=(1, 1), bias=False)
                (1): BatchNorm2d(960, eps=1e-05, momentum=0.1, affine=True, track_running_stats=True)
                (2): ReLU6(inplace=True)
                (3): Conv2d(960, 960, kernel_size=(3, 3), stride=(1, 1), padding=(1, 1), groups=960, bias=False)
                (4): BatchNorm2d(960, eps=1e-05, momentum=0.1, affine=True, track_running_stats=True)
                (5): ReLU6(inplace=True)
                (6): Conv2d(960, 160, kernel_size=(1, 1), stride=(1, 1), bias=False)
                (7): BatchNorm2d(160, eps=1e-05, momentum=0.1, affine=True, track_running_stats=True)
              )
            )
            (17): InvertedResidual(
              (conv): Sequential(
                (0): Conv2d(160, 960, kernel_size=(1, 1), stride=(1, 1), bias=False)
                (1): BatchNorm2d(960, eps=1e-05, momentum=0.1, affine=True, track_running_stats=True)
                (2): ReLU6(inplace=True)
                (3): Conv2d(960, 960, kernel_size=(3, 3), stride=(1, 1), padding=(1, 1), groups=960, bias=False)
                (4): BatchNorm2d(960, eps=1e-05, momentum=0.1, affine=True, track_running_stats=True)
                (5): ReLU6(inplace=True)
                (6): Conv2d(960, 320, kernel_size=(1, 1), stride=(1, 1), bias=False)
                (7): BatchNorm2d(320, eps=1e-05, momentum=0.1, affine=True, track_running_stats=True)
              )
            )
          )
          (conv): Sequential(
            (0): Conv2d(320, 1280, kernel_size=(1, 1), stride=(1, 1), bias=False)
            (1): BatchNorm2d(1280, eps=1e-05, momentum=0.1, affine=True, track_running_stats=True)
            (2): ReLU6(inplace=True)
          )
        )
      )
    )
    (spp): SpatialPyramidPooling(
      (head_conv): Sequential(
        (0): Conv(
          (conv): Sequential(
            (0): Conv2d(1280, 640, kernel_size=(1, 1), stride=(1, 1), bias=False)
            (1): BatchNorm2d(640, eps=1e-05, momentum=0.1, affine=True, track_running_stats=True)
            (2): LeakyReLU(negative_slope=0.01)
          )
        )
        (1): Conv(
          (conv): Sequential(
            (0): Conv2d(640, 1280, kernel_size=(3, 3), stride=(1, 1), padding=(1, 1), bias=False)
            (1): BatchNorm2d(1280, eps=1e-05, momentum=0.1, affine=True, track_running_stats=True)
            (2): LeakyReLU(negative_slope=0.01)
          )
        )
        (2): Conv(
          (conv): Sequential(
            (0): Conv2d(1280, 640, kernel_size=(1, 1), stride=(1, 1), bias=False)
            (1): BatchNorm2d(640, eps=1e-05, momentum=0.1, affine=True, track_running_stats=True)
            (2): LeakyReLU(negative_slope=0.01)
          )
        )
      )
      (maxpools): ModuleList(
        (0): MaxPool2d(kernel_size=5, stride=1, padding=2, dilation=1, ceil_mode=False)
        (1): MaxPool2d(kernel_size=9, stride=1, padding=4, dilation=1, ceil_mode=False)
        (2): MaxPool2d(kernel_size=13, stride=1, padding=6, dilation=1, ceil_mode=False)
      )
    )
    (panet): PANet(
      (feature_transform3): Conv(
        (conv): Sequential(
          (0): Conv2d(32, 16, kernel_size=(1, 1), stride=(1, 1), bias=False)
          (1): BatchNorm2d(16, eps=1e-05, momentum=0.1, affine=True, track_running_stats=True)
          (2): LeakyReLU(negative_slope=0.01)
        )
      )
      (feature_transform4): Conv(
        (conv): Sequential(
          (0): Conv2d(96, 48, kernel_size=(1, 1), stride=(1, 1), bias=False)
          (1): BatchNorm2d(48, eps=1e-05, momentum=0.1, affine=True, track_running_stats=True)
          (2): LeakyReLU(negative_slope=0.01)
        )
      )
      (resample5_4): Upsample(
        (upsample): Sequential(
          (0): Conv(
            (conv): Sequential(
              (0): Conv2d(640, 48, kernel_size=(1, 1), stride=(1, 1), bias=False)
              (1): BatchNorm2d(48, eps=1e-05, momentum=0.1, affine=True, track_running_stats=True)
              (2): LeakyReLU(negative_slope=0.01)
            )
          )
          (1): Upsample(scale_factor=2.0, mode=nearest)
        )
      )
      (resample4_3): Upsample(
        (upsample): Sequential(
          (0): Conv(
            (conv): Sequential(
              (0): Conv2d(48, 16, kernel_size=(1, 1), stride=(1, 1), bias=False)
              (1): BatchNorm2d(16, eps=1e-05, momentum=0.1, affine=True, track_running_stats=True)
              (2): LeakyReLU(negative_slope=0.01)
            )
          )
          (1): Upsample(scale_factor=2.0, mode=nearest)
        )
      )
      (resample3_4): Downsample(
        (downsample): Conv(
          (conv): Sequential(
            (0): Conv2d(16, 48, kernel_size=(3, 3), stride=(2, 2), padding=(1, 1), bias=False)
            (1): BatchNorm2d(48, eps=1e-05, momentum=0.1, affine=True, track_running_stats=True)
            (2): LeakyReLU(negative_slope=0.01)
          )
        )
      )
      (resample4_5): Downsample(
        (downsample): Conv(
          (conv): Sequential(
            (0): Conv2d(48, 640, kernel_size=(3, 3), stride=(2, 2), padding=(1, 1), bias=False)
            (1): BatchNorm2d(640, eps=1e-05, momentum=0.1, affine=True, track_running_stats=True)
            (2): LeakyReLU(negative_slope=0.01)
          )
        )
      )
      (downstream_conv5): Sequential(
        (0): Conv(
          (conv): Sequential(
            (0): Conv2d(2560, 640, kernel_size=(1, 1), stride=(1, 1), bias=False)
            (1): BatchNorm2d(640, eps=1e-05, momentum=0.1, affine=True, track_running_stats=True)
            (2): LeakyReLU(negative_slope=0.01)
          )
        )
        (1): Conv(
          (conv): Sequential(
            (0): Conv2d(640, 1280, kernel_size=(3, 3), stride=(1, 1), padding=(1, 1), bias=False)
            (1): BatchNorm2d(1280, eps=1e-05, momentum=0.1, affine=True, track_running_stats=True)
            (2): LeakyReLU(negative_slope=0.01)
          )
        )
        (2): Conv(
          (conv): Sequential(
            (0): Conv2d(1280, 640, kernel_size=(1, 1), stride=(1, 1), bias=False)
            (1): BatchNorm2d(640, eps=1e-05, momentum=0.1, affine=True, track_running_stats=True)
            (2): LeakyReLU(negative_slope=0.01)
          )
        )
      )
      (downstream_conv4): Sequential(
        (0): Conv(
          (conv): Sequential(
            (0): Conv2d(96, 48, kernel_size=(1, 1), stride=(1, 1), bias=False)
            (1): BatchNorm2d(48, eps=1e-05, momentum=0.1, affine=True, track_running_stats=True)
            (2): LeakyReLU(negative_slope=0.01)
          )
        )
        (1): Conv(
          (conv): Sequential(
            (0): Conv2d(48, 96, kernel_size=(3, 3), stride=(1, 1), padding=(1, 1), bias=False)
            (1): BatchNorm2d(96, eps=1e-05, momentum=0.1, affine=True, track_running_stats=True)
            (2): LeakyReLU(negative_slope=0.01)
          )
        )
        (2): Conv(
          (conv): Sequential(
            (0): Conv2d(96, 48, kernel_size=(1, 1), stride=(1, 1), bias=False)
            (1): BatchNorm2d(48, eps=1e-05, momentum=0.1, affine=True, track_running_stats=True)
            (2): LeakyReLU(negative_slope=0.01)
          )
        )
        (3): Conv(
          (conv): Sequential(
            (0): Conv2d(48, 96, kernel_size=(3, 3), stride=(1, 1), padding=(1, 1), bias=False)
            (1): BatchNorm2d(96, eps=1e-05, momentum=0.1, affine=True, track_running_stats=True)
            (2): LeakyReLU(negative_slope=0.01)
          )
        )
        (4): Conv(
          (conv): Sequential(
            (0): Conv2d(96, 48, kernel_size=(1, 1), stride=(1, 1), bias=False)
            (1): BatchNorm2d(48, eps=1e-05, momentum=0.1, affine=True, track_running_stats=True)
            (2): LeakyReLU(negative_slope=0.01)
          )
        )
      )
      (downstream_conv3): Sequential(
        (0): Conv(
          (conv): Sequential(
            (0): Conv2d(32, 16, kernel_size=(1, 1), stride=(1, 1), bias=False)
            (1): BatchNorm2d(16, eps=1e-05, momentum=0.1, affine=True, track_running_stats=True)
            (2): LeakyReLU(negative_slope=0.01)
          )
        )
        (1): Conv(
          (conv): Sequential(
            (0): Conv2d(16, 32, kernel_size=(3, 3), stride=(1, 1), padding=(1, 1), bias=False)
            (1): BatchNorm2d(32, eps=1e-05, momentum=0.1, affine=True, track_running_stats=True)
            (2): LeakyReLU(negative_slope=0.01)
          )
        )
        (2): Conv(
          (conv): Sequential(
            (0): Conv2d(32, 16, kernel_size=(1, 1), stride=(1, 1), bias=False)
            (1): BatchNorm2d(16, eps=1e-05, momentum=0.1, affine=True, track_running_stats=True)
            (2): LeakyReLU(negative_slope=0.01)
          )
        )
        (3): Conv(
          (conv): Sequential(
            (0): Conv2d(16, 32, kernel_size=(3, 3), stride=(1, 1), padding=(1, 1), bias=False)
            (1): BatchNorm2d(32, eps=1e-05, momentum=0.1, affine=True, track_running_stats=True)
            (2): LeakyReLU(negative_slope=0.01)
          )
        )
        (4): Conv(
          (conv): Sequential(
            (0): Conv2d(32, 16, kernel_size=(1, 1), stride=(1, 1), bias=False)
            (1): BatchNorm2d(16, eps=1e-05, momentum=0.1, affine=True, track_running_stats=True)
            (2): LeakyReLU(negative_slope=0.01)
          )
        )
      )
      (upstream_conv4): Sequential(
        (0): Conv(
          (conv): Sequential(
            (0): Conv2d(96, 48, kernel_size=(1, 1), stride=(1, 1), bias=False)
            (1): BatchNorm2d(48, eps=1e-05, momentum=0.1, affine=True, track_running_stats=True)
            (2): LeakyReLU(negative_slope=0.01)
          )
        )
        (1): Conv(
          (conv): Sequential(
            (0): Conv2d(48, 96, kernel_size=(3, 3), stride=(1, 1), padding=(1, 1), bias=False)
            (1): BatchNorm2d(96, eps=1e-05, momentum=0.1, affine=True, track_running_stats=True)
            (2): LeakyReLU(negative_slope=0.01)
          )
        )
        (2): Conv(
          (conv): Sequential(
            (0): Conv2d(96, 48, kernel_size=(1, 1), stride=(1, 1), bias=False)
            (1): BatchNorm2d(48, eps=1e-05, momentum=0.1, affine=True, track_running_stats=True)
            (2): LeakyReLU(negative_slope=0.01)
          )
        )
        (3): Conv(
          (conv): Sequential(
            (0): Conv2d(48, 96, kernel_size=(3, 3), stride=(1, 1), padding=(1, 1), bias=False)
            (1): BatchNorm2d(96, eps=1e-05, momentum=0.1, affine=True, track_running_stats=True)
            (2): LeakyReLU(negative_slope=0.01)
          )
        )
        (4): Conv(
          (conv): Sequential(
            (0): Conv2d(96, 48, kernel_size=(1, 1), stride=(1, 1), bias=False)
            (1): BatchNorm2d(48, eps=1e-05, momentum=0.1, affine=True, track_running_stats=True)
            (2): LeakyReLU(negative_slope=0.01)
          )
        )
      )
      (upstream_conv5): Sequential(
        (0): Conv(
          (conv): Sequential(
            (0): Conv2d(1280, 640, kernel_size=(1, 1), stride=(1, 1), bias=False)
            (1): BatchNorm2d(640, eps=1e-05, momentum=0.1, affine=True, track_running_stats=True)
            (2): LeakyReLU(negative_slope=0.01)
          )
        )
        (1): Conv(
          (conv): Sequential(
            (0): Conv2d(640, 1280, kernel_size=(3, 3), stride=(1, 1), padding=(1, 1), bias=False)
            (1): BatchNorm2d(1280, eps=1e-05, momentum=0.1, affine=True, track_running_stats=True)
            (2): LeakyReLU(negative_slope=0.01)
          )
        )
        (2): Conv(
          (conv): Sequential(
            (0): Conv2d(1280, 640, kernel_size=(1, 1), stride=(1, 1), bias=False)
            (1): BatchNorm2d(640, eps=1e-05, momentum=0.1, affine=True, track_running_stats=True)
            (2): LeakyReLU(negative_slope=0.01)
          )
        )
        (3): Conv(
          (conv): Sequential(
            (0): Conv2d(640, 1280, kernel_size=(3, 3), stride=(1, 1), padding=(1, 1), bias=False)
            (1): BatchNorm2d(1280, eps=1e-05, momentum=0.1, affine=True, track_running_stats=True)
            (2): LeakyReLU(negative_slope=0.01)
          )
        )
        (4): Conv(
          (conv): Sequential(
            (0): Conv2d(1280, 640, kernel_size=(1, 1), stride=(1, 1), bias=False)
            (1): BatchNorm2d(640, eps=1e-05, momentum=0.1, affine=True, track_running_stats=True)
            (2): LeakyReLU(negative_slope=0.01)
          )
        )
      )
    )
    (predict_net): PredictNet(
      (predict_conv): ModuleList(
        (0): Sequential(
          (0): Conv(
            (conv): Sequential(
              (0): Conv2d(16, 32, kernel_size=(3, 3), stride=(1, 1), padding=(1, 1), bias=False)
              (1): BatchNorm2d(32, eps=1e-05, momentum=0.1, affine=True, track_running_stats=True)
              (2): LeakyReLU(negative_slope=0.01)
            )
          )
          (1): Conv2d(32, 75, kernel_size=(1, 1), stride=(1, 1))
        )
        (1): Sequential(
          (0): Conv(
            (conv): Sequential(
              (0): Conv2d(48, 96, kernel_size=(3, 3), stride=(1, 1), padding=(1, 1), bias=False)
              (1): BatchNorm2d(96, eps=1e-05, momentum=0.1, affine=True, track_running_stats=True)
              (2): LeakyReLU(negative_slope=0.01)
            )
          )
          (1): Conv2d(96, 75, kernel_size=(1, 1), stride=(1, 1))
        )
        (2): Sequential(
          (0): Conv(
            (conv): Sequential(
              (0): Conv2d(640, 1280, kernel_size=(3, 3), stride=(1, 1), padding=(1, 1), bias=False)
              (1): BatchNorm2d(1280, eps=1e-05, momentum=0.1, affine=True, track_running_stats=True)
              (2): LeakyReLU(negative_slope=0.01)
            )
          )
          (1): Conv2d(1280, 75, kernel_size=(1, 1), stride=(1, 1))
        )
      )
    )
  )
  (_Build_Model__head_s): Yolo_head()
  (_Build_Model__head_m): Yolo_head()
  (_Build_Model__head_l): Yolo_head()
) 
[2021-05-16 11:56:18,657]-[main.py line:166]:Train datasets number is : 5011 
[2021-05-16 11:56:18,657]-[main.py line:175]:        =======  start  training   ======      
[2021-05-16 11:56:18,663]-[main.py line:181]:===Epoch:[0/120]=== 
[2021-05-16 11:59:04,267]-[main.py line:161]:Training start,img size is: 416,batchsize is: 1,work number is 0 
[2021-05-16 11:59:04,267]-[main.py line:164]:Build_Model(
  (_Build_Model__yolov4): YOLOv4(
    (backbone): MobilenetV2(
      (_MobilenetV2__submodule): _MobileNetV2(
        (features): Sequential(
          (0): Sequential(
            (0): Conv2d(3, 32, kernel_size=(3, 3), stride=(2, 2), padding=(1, 1), bias=False)
            (1): BatchNorm2d(32, eps=1e-05, momentum=0.1, affine=True, track_running_stats=True)
            (2): ReLU6(inplace=True)
          )
          (1): InvertedResidual(
            (conv): Sequential(
              (0): Conv2d(32, 32, kernel_size=(3, 3), stride=(1, 1), padding=(1, 1), groups=32, bias=False)
              (1): BatchNorm2d(32, eps=1e-05, momentum=0.1, affine=True, track_running_stats=True)
              (2): ReLU6(inplace=True)
              (3): Conv2d(32, 16, kernel_size=(1, 1), stride=(1, 1), bias=False)
              (4): BatchNorm2d(16, eps=1e-05, momentum=0.1, affine=True, track_running_stats=True)
            )
          )
          (2): InvertedResidual(
            (conv): Sequential(
              (0): Conv2d(16, 96, kernel_size=(1, 1), stride=(1, 1), bias=False)
              (1): BatchNorm2d(96, eps=1e-05, momentum=0.1, affine=True, track_running_stats=True)
              (2): ReLU6(inplace=True)
              (3): Conv2d(96, 96, kernel_size=(3, 3), stride=(2, 2), padding=(1, 1), groups=96, bias=False)
              (4): BatchNorm2d(96, eps=1e-05, momentum=0.1, affine=True, track_running_stats=True)
              (5): ReLU6(inplace=True)
              (6): Conv2d(96, 24, kernel_size=(1, 1), stride=(1, 1), bias=False)
              (7): BatchNorm2d(24, eps=1e-05, momentum=0.1, affine=True, track_running_stats=True)
            )
          )
          (3): InvertedResidual(
            (conv): Sequential(
              (0): Conv2d(24, 144, kernel_size=(1, 1), stride=(1, 1), bias=False)
              (1): BatchNorm2d(144, eps=1e-05, momentum=0.1, affine=True, track_running_stats=True)
              (2): ReLU6(inplace=True)
              (3): Conv2d(144, 144, kernel_size=(3, 3), stride=(1, 1), padding=(1, 1), groups=144, bias=False)
              (4): BatchNorm2d(144, eps=1e-05, momentum=0.1, affine=True, track_running_stats=True)
              (5): ReLU6(inplace=True)
              (6): Conv2d(144, 24, kernel_size=(1, 1), stride=(1, 1), bias=False)
              (7): BatchNorm2d(24, eps=1e-05, momentum=0.1, affine=True, track_running_stats=True)
            )
          )
          (4): InvertedResidual(
            (conv): Sequential(
              (0): Conv2d(24, 144, kernel_size=(1, 1), stride=(1, 1), bias=False)
              (1): BatchNorm2d(144, eps=1e-05, momentum=0.1, affine=True, track_running_stats=True)
              (2): ReLU6(inplace=True)
              (3): Conv2d(144, 144, kernel_size=(3, 3), stride=(2, 2), padding=(1, 1), groups=144, bias=False)
              (4): BatchNorm2d(144, eps=1e-05, momentum=0.1, affine=True, track_running_stats=True)
              (5): ReLU6(inplace=True)
              (6): Conv2d(144, 32, kernel_size=(1, 1), stride=(1, 1), bias=False)
              (7): BatchNorm2d(32, eps=1e-05, momentum=0.1, affine=True, track_running_stats=True)
            )
          )
          (5): InvertedResidual(
            (conv): Sequential(
              (0): Conv2d(32, 192, kernel_size=(1, 1), stride=(1, 1), bias=False)
              (1): BatchNorm2d(192, eps=1e-05, momentum=0.1, affine=True, track_running_stats=True)
              (2): ReLU6(inplace=True)
              (3): Conv2d(192, 192, kernel_size=(3, 3), stride=(1, 1), padding=(1, 1), groups=192, bias=False)
              (4): BatchNorm2d(192, eps=1e-05, momentum=0.1, affine=True, track_running_stats=True)
              (5): ReLU6(inplace=True)
              (6): Conv2d(192, 32, kernel_size=(1, 1), stride=(1, 1), bias=False)
              (7): BatchNorm2d(32, eps=1e-05, momentum=0.1, affine=True, track_running_stats=True)
            )
          )
          (6): InvertedResidual(
            (conv): Sequential(
              (0): Conv2d(32, 192, kernel_size=(1, 1), stride=(1, 1), bias=False)
              (1): BatchNorm2d(192, eps=1e-05, momentum=0.1, affine=True, track_running_stats=True)
              (2): ReLU6(inplace=True)
              (3): Conv2d(192, 192, kernel_size=(3, 3), stride=(1, 1), padding=(1, 1), groups=192, bias=False)
              (4): BatchNorm2d(192, eps=1e-05, momentum=0.1, affine=True, track_running_stats=True)
              (5): ReLU6(inplace=True)
              (6): Conv2d(192, 32, kernel_size=(1, 1), stride=(1, 1), bias=False)
              (7): BatchNorm2d(32, eps=1e-05, momentum=0.1, affine=True, track_running_stats=True)
            )
          )
          (7): InvertedResidual(
            (conv): Sequential(
              (0): Conv2d(32, 192, kernel_size=(1, 1), stride=(1, 1), bias=False)
              (1): BatchNorm2d(192, eps=1e-05, momentum=0.1, affine=True, track_running_stats=True)
              (2): ReLU6(inplace=True)
              (3): Conv2d(192, 192, kernel_size=(3, 3), stride=(2, 2), padding=(1, 1), groups=192, bias=False)
              (4): BatchNorm2d(192, eps=1e-05, momentum=0.1, affine=True, track_running_stats=True)
              (5): ReLU6(inplace=True)
              (6): Conv2d(192, 64, kernel_size=(1, 1), stride=(1, 1), bias=False)
              (7): BatchNorm2d(64, eps=1e-05, momentum=0.1, affine=True, track_running_stats=True)
            )
          )
          (8): InvertedResidual(
            (conv): Sequential(
              (0): Conv2d(64, 384, kernel_size=(1, 1), stride=(1, 1), bias=False)
              (1): BatchNorm2d(384, eps=1e-05, momentum=0.1, affine=True, track_running_stats=True)
              (2): ReLU6(inplace=True)
              (3): Conv2d(384, 384, kernel_size=(3, 3), stride=(1, 1), padding=(1, 1), groups=384, bias=False)
              (4): BatchNorm2d(384, eps=1e-05, momentum=0.1, affine=True, track_running_stats=True)
              (5): ReLU6(inplace=True)
              (6): Conv2d(384, 64, kernel_size=(1, 1), stride=(1, 1), bias=False)
              (7): BatchNorm2d(64, eps=1e-05, momentum=0.1, affine=True, track_running_stats=True)
            )
          )
          (9): InvertedResidual(
            (conv): Sequential(
              (0): Conv2d(64, 384, kernel_size=(1, 1), stride=(1, 1), bias=False)
              (1): BatchNorm2d(384, eps=1e-05, momentum=0.1, affine=True, track_running_stats=True)
              (2): ReLU6(inplace=True)
              (3): Conv2d(384, 384, kernel_size=(3, 3), stride=(1, 1), padding=(1, 1), groups=384, bias=False)
              (4): BatchNorm2d(384, eps=1e-05, momentum=0.1, affine=True, track_running_stats=True)
              (5): ReLU6(inplace=True)
              (6): Conv2d(384, 64, kernel_size=(1, 1), stride=(1, 1), bias=False)
              (7): BatchNorm2d(64, eps=1e-05, momentum=0.1, affine=True, track_running_stats=True)
            )
          )
          (10): InvertedResidual(
            (conv): Sequential(
              (0): Conv2d(64, 384, kernel_size=(1, 1), stride=(1, 1), bias=False)
              (1): BatchNorm2d(384, eps=1e-05, momentum=0.1, affine=True, track_running_stats=True)
              (2): ReLU6(inplace=True)
              (3): Conv2d(384, 384, kernel_size=(3, 3), stride=(1, 1), padding=(1, 1), groups=384, bias=False)
              (4): BatchNorm2d(384, eps=1e-05, momentum=0.1, affine=True, track_running_stats=True)
              (5): ReLU6(inplace=True)
              (6): Conv2d(384, 64, kernel_size=(1, 1), stride=(1, 1), bias=False)
              (7): BatchNorm2d(64, eps=1e-05, momentum=0.1, affine=True, track_running_stats=True)
            )
          )
          (11): InvertedResidual(
            (conv): Sequential(
              (0): Conv2d(64, 384, kernel_size=(1, 1), stride=(1, 1), bias=False)
              (1): BatchNorm2d(384, eps=1e-05, momentum=0.1, affine=True, track_running_stats=True)
              (2): ReLU6(inplace=True)
              (3): Conv2d(384, 384, kernel_size=(3, 3), stride=(1, 1), padding=(1, 1), groups=384, bias=False)
              (4): BatchNorm2d(384, eps=1e-05, momentum=0.1, affine=True, track_running_stats=True)
              (5): ReLU6(inplace=True)
              (6): Conv2d(384, 96, kernel_size=(1, 1), stride=(1, 1), bias=False)
              (7): BatchNorm2d(96, eps=1e-05, momentum=0.1, affine=True, track_running_stats=True)
            )
          )
          (12): InvertedResidual(
            (conv): Sequential(
              (0): Conv2d(96, 576, kernel_size=(1, 1), stride=(1, 1), bias=False)
              (1): BatchNorm2d(576, eps=1e-05, momentum=0.1, affine=True, track_running_stats=True)
              (2): ReLU6(inplace=True)
              (3): Conv2d(576, 576, kernel_size=(3, 3), stride=(1, 1), padding=(1, 1), groups=576, bias=False)
              (4): BatchNorm2d(576, eps=1e-05, momentum=0.1, affine=True, track_running_stats=True)
              (5): ReLU6(inplace=True)
              (6): Conv2d(576, 96, kernel_size=(1, 1), stride=(1, 1), bias=False)
              (7): BatchNorm2d(96, eps=1e-05, momentum=0.1, affine=True, track_running_stats=True)
            )
          )
          (13): InvertedResidual(
            (conv): Sequential(
              (0): Conv2d(96, 576, kernel_size=(1, 1), stride=(1, 1), bias=False)
              (1): BatchNorm2d(576, eps=1e-05, momentum=0.1, affine=True, track_running_stats=True)
              (2): ReLU6(inplace=True)
              (3): Conv2d(576, 576, kernel_size=(3, 3), stride=(1, 1), padding=(1, 1), groups=576, bias=False)
              (4): BatchNorm2d(576, eps=1e-05, momentum=0.1, affine=True, track_running_stats=True)
              (5): ReLU6(inplace=True)
              (6): Conv2d(576, 96, kernel_size=(1, 1), stride=(1, 1), bias=False)
              (7): BatchNorm2d(96, eps=1e-05, momentum=0.1, affine=True, track_running_stats=True)
            )
          )
          (14): InvertedResidual(
            (conv): Sequential(
              (0): Conv2d(96, 576, kernel_size=(1, 1), stride=(1, 1), bias=False)
              (1): BatchNorm2d(576, eps=1e-05, momentum=0.1, affine=True, track_running_stats=True)
              (2): ReLU6(inplace=True)
              (3): Conv2d(576, 576, kernel_size=(3, 3), stride=(2, 2), padding=(1, 1), groups=576, bias=False)
              (4): BatchNorm2d(576, eps=1e-05, momentum=0.1, affine=True, track_running_stats=True)
              (5): ReLU6(inplace=True)
              (6): Conv2d(576, 160, kernel_size=(1, 1), stride=(1, 1), bias=False)
              (7): BatchNorm2d(160, eps=1e-05, momentum=0.1, affine=True, track_running_stats=True)
            )
          )
          (15): InvertedResidual(
            (conv): Sequential(
              (0): Conv2d(160, 960, kernel_size=(1, 1), stride=(1, 1), bias=False)
              (1): BatchNorm2d(960, eps=1e-05, momentum=0.1, affine=True, track_running_stats=True)
              (2): ReLU6(inplace=True)
              (3): Conv2d(960, 960, kernel_size=(3, 3), stride=(1, 1), padding=(1, 1), groups=960, bias=False)
              (4): BatchNorm2d(960, eps=1e-05, momentum=0.1, affine=True, track_running_stats=True)
              (5): ReLU6(inplace=True)
              (6): Conv2d(960, 160, kernel_size=(1, 1), stride=(1, 1), bias=False)
              (7): BatchNorm2d(160, eps=1e-05, momentum=0.1, affine=True, track_running_stats=True)
            )
          )
          (16): InvertedResidual(
            (conv): Sequential(
              (0): Conv2d(160, 960, kernel_size=(1, 1), stride=(1, 1), bias=False)
              (1): BatchNorm2d(960, eps=1e-05, momentum=0.1, affine=True, track_running_stats=True)
              (2): ReLU6(inplace=True)
              (3): Conv2d(960, 960, kernel_size=(3, 3), stride=(1, 1), padding=(1, 1), groups=960, bias=False)
              (4): BatchNorm2d(960, eps=1e-05, momentum=0.1, affine=True, track_running_stats=True)
              (5): ReLU6(inplace=True)
              (6): Conv2d(960, 160, kernel_size=(1, 1), stride=(1, 1), bias=False)
              (7): BatchNorm2d(160, eps=1e-05, momentum=0.1, affine=True, track_running_stats=True)
            )
          )
          (17): InvertedResidual(
            (conv): Sequential(
              (0): Conv2d(160, 960, kernel_size=(1, 1), stride=(1, 1), bias=False)
              (1): BatchNorm2d(960, eps=1e-05, momentum=0.1, affine=True, track_running_stats=True)
              (2): ReLU6(inplace=True)
              (3): Conv2d(960, 960, kernel_size=(3, 3), stride=(1, 1), padding=(1, 1), groups=960, bias=False)
              (4): BatchNorm2d(960, eps=1e-05, momentum=0.1, affine=True, track_running_stats=True)
              (5): ReLU6(inplace=True)
              (6): Conv2d(960, 320, kernel_size=(1, 1), stride=(1, 1), bias=False)
              (7): BatchNorm2d(320, eps=1e-05, momentum=0.1, affine=True, track_running_stats=True)
            )
          )
        )
        (conv): Sequential(
          (0): Conv2d(320, 1280, kernel_size=(1, 1), stride=(1, 1), bias=False)
          (1): BatchNorm2d(1280, eps=1e-05, momentum=0.1, affine=True, track_running_stats=True)
          (2): ReLU6(inplace=True)
        )
      )
      (_MobilenetV2__extractor): FeatureExtractor(
        (submodule): _MobileNetV2(
          (features): Sequential(
            (0): Sequential(
              (0): Conv2d(3, 32, kernel_size=(3, 3), stride=(2, 2), padding=(1, 1), bias=False)
              (1): BatchNorm2d(32, eps=1e-05, momentum=0.1, affine=True, track_running_stats=True)
              (2): ReLU6(inplace=True)
            )
            (1): InvertedResidual(
              (conv): Sequential(
                (0): Conv2d(32, 32, kernel_size=(3, 3), stride=(1, 1), padding=(1, 1), groups=32, bias=False)
                (1): BatchNorm2d(32, eps=1e-05, momentum=0.1, affine=True, track_running_stats=True)
                (2): ReLU6(inplace=True)
                (3): Conv2d(32, 16, kernel_size=(1, 1), stride=(1, 1), bias=False)
                (4): BatchNorm2d(16, eps=1e-05, momentum=0.1, affine=True, track_running_stats=True)
              )
            )
            (2): InvertedResidual(
              (conv): Sequential(
                (0): Conv2d(16, 96, kernel_size=(1, 1), stride=(1, 1), bias=False)
                (1): BatchNorm2d(96, eps=1e-05, momentum=0.1, affine=True, track_running_stats=True)
                (2): ReLU6(inplace=True)
                (3): Conv2d(96, 96, kernel_size=(3, 3), stride=(2, 2), padding=(1, 1), groups=96, bias=False)
                (4): BatchNorm2d(96, eps=1e-05, momentum=0.1, affine=True, track_running_stats=True)
                (5): ReLU6(inplace=True)
                (6): Conv2d(96, 24, kernel_size=(1, 1), stride=(1, 1), bias=False)
                (7): BatchNorm2d(24, eps=1e-05, momentum=0.1, affine=True, track_running_stats=True)
              )
            )
            (3): InvertedResidual(
              (conv): Sequential(
                (0): Conv2d(24, 144, kernel_size=(1, 1), stride=(1, 1), bias=False)
                (1): BatchNorm2d(144, eps=1e-05, momentum=0.1, affine=True, track_running_stats=True)
                (2): ReLU6(inplace=True)
                (3): Conv2d(144, 144, kernel_size=(3, 3), stride=(1, 1), padding=(1, 1), groups=144, bias=False)
                (4): BatchNorm2d(144, eps=1e-05, momentum=0.1, affine=True, track_running_stats=True)
                (5): ReLU6(inplace=True)
                (6): Conv2d(144, 24, kernel_size=(1, 1), stride=(1, 1), bias=False)
                (7): BatchNorm2d(24, eps=1e-05, momentum=0.1, affine=True, track_running_stats=True)
              )
            )
            (4): InvertedResidual(
              (conv): Sequential(
                (0): Conv2d(24, 144, kernel_size=(1, 1), stride=(1, 1), bias=False)
                (1): BatchNorm2d(144, eps=1e-05, momentum=0.1, affine=True, track_running_stats=True)
                (2): ReLU6(inplace=True)
                (3): Conv2d(144, 144, kernel_size=(3, 3), stride=(2, 2), padding=(1, 1), groups=144, bias=False)
                (4): BatchNorm2d(144, eps=1e-05, momentum=0.1, affine=True, track_running_stats=True)
                (5): ReLU6(inplace=True)
                (6): Conv2d(144, 32, kernel_size=(1, 1), stride=(1, 1), bias=False)
                (7): BatchNorm2d(32, eps=1e-05, momentum=0.1, affine=True, track_running_stats=True)
              )
            )
            (5): InvertedResidual(
              (conv): Sequential(
                (0): Conv2d(32, 192, kernel_size=(1, 1), stride=(1, 1), bias=False)
                (1): BatchNorm2d(192, eps=1e-05, momentum=0.1, affine=True, track_running_stats=True)
                (2): ReLU6(inplace=True)
                (3): Conv2d(192, 192, kernel_size=(3, 3), stride=(1, 1), padding=(1, 1), groups=192, bias=False)
                (4): BatchNorm2d(192, eps=1e-05, momentum=0.1, affine=True, track_running_stats=True)
                (5): ReLU6(inplace=True)
                (6): Conv2d(192, 32, kernel_size=(1, 1), stride=(1, 1), bias=False)
                (7): BatchNorm2d(32, eps=1e-05, momentum=0.1, affine=True, track_running_stats=True)
              )
            )
            (6): InvertedResidual(
              (conv): Sequential(
                (0): Conv2d(32, 192, kernel_size=(1, 1), stride=(1, 1), bias=False)
                (1): BatchNorm2d(192, eps=1e-05, momentum=0.1, affine=True, track_running_stats=True)
                (2): ReLU6(inplace=True)
                (3): Conv2d(192, 192, kernel_size=(3, 3), stride=(1, 1), padding=(1, 1), groups=192, bias=False)
                (4): BatchNorm2d(192, eps=1e-05, momentum=0.1, affine=True, track_running_stats=True)
                (5): ReLU6(inplace=True)
                (6): Conv2d(192, 32, kernel_size=(1, 1), stride=(1, 1), bias=False)
                (7): BatchNorm2d(32, eps=1e-05, momentum=0.1, affine=True, track_running_stats=True)
              )
            )
            (7): InvertedResidual(
              (conv): Sequential(
                (0): Conv2d(32, 192, kernel_size=(1, 1), stride=(1, 1), bias=False)
                (1): BatchNorm2d(192, eps=1e-05, momentum=0.1, affine=True, track_running_stats=True)
                (2): ReLU6(inplace=True)
                (3): Conv2d(192, 192, kernel_size=(3, 3), stride=(2, 2), padding=(1, 1), groups=192, bias=False)
                (4): BatchNorm2d(192, eps=1e-05, momentum=0.1, affine=True, track_running_stats=True)
                (5): ReLU6(inplace=True)
                (6): Conv2d(192, 64, kernel_size=(1, 1), stride=(1, 1), bias=False)
                (7): BatchNorm2d(64, eps=1e-05, momentum=0.1, affine=True, track_running_stats=True)
              )
            )
            (8): InvertedResidual(
              (conv): Sequential(
                (0): Conv2d(64, 384, kernel_size=(1, 1), stride=(1, 1), bias=False)
                (1): BatchNorm2d(384, eps=1e-05, momentum=0.1, affine=True, track_running_stats=True)
                (2): ReLU6(inplace=True)
                (3): Conv2d(384, 384, kernel_size=(3, 3), stride=(1, 1), padding=(1, 1), groups=384, bias=False)
                (4): BatchNorm2d(384, eps=1e-05, momentum=0.1, affine=True, track_running_stats=True)
                (5): ReLU6(inplace=True)
                (6): Conv2d(384, 64, kernel_size=(1, 1), stride=(1, 1), bias=False)
                (7): BatchNorm2d(64, eps=1e-05, momentum=0.1, affine=True, track_running_stats=True)
              )
            )
            (9): InvertedResidual(
              (conv): Sequential(
                (0): Conv2d(64, 384, kernel_size=(1, 1), stride=(1, 1), bias=False)
                (1): BatchNorm2d(384, eps=1e-05, momentum=0.1, affine=True, track_running_stats=True)
                (2): ReLU6(inplace=True)
                (3): Conv2d(384, 384, kernel_size=(3, 3), stride=(1, 1), padding=(1, 1), groups=384, bias=False)
                (4): BatchNorm2d(384, eps=1e-05, momentum=0.1, affine=True, track_running_stats=True)
                (5): ReLU6(inplace=True)
                (6): Conv2d(384, 64, kernel_size=(1, 1), stride=(1, 1), bias=False)
                (7): BatchNorm2d(64, eps=1e-05, momentum=0.1, affine=True, track_running_stats=True)
              )
            )
            (10): InvertedResidual(
              (conv): Sequential(
                (0): Conv2d(64, 384, kernel_size=(1, 1), stride=(1, 1), bias=False)
                (1): BatchNorm2d(384, eps=1e-05, momentum=0.1, affine=True, track_running_stats=True)
                (2): ReLU6(inplace=True)
                (3): Conv2d(384, 384, kernel_size=(3, 3), stride=(1, 1), padding=(1, 1), groups=384, bias=False)
                (4): BatchNorm2d(384, eps=1e-05, momentum=0.1, affine=True, track_running_stats=True)
                (5): ReLU6(inplace=True)
                (6): Conv2d(384, 64, kernel_size=(1, 1), stride=(1, 1), bias=False)
                (7): BatchNorm2d(64, eps=1e-05, momentum=0.1, affine=True, track_running_stats=True)
              )
            )
            (11): InvertedResidual(
              (conv): Sequential(
                (0): Conv2d(64, 384, kernel_size=(1, 1), stride=(1, 1), bias=False)
                (1): BatchNorm2d(384, eps=1e-05, momentum=0.1, affine=True, track_running_stats=True)
                (2): ReLU6(inplace=True)
                (3): Conv2d(384, 384, kernel_size=(3, 3), stride=(1, 1), padding=(1, 1), groups=384, bias=False)
                (4): BatchNorm2d(384, eps=1e-05, momentum=0.1, affine=True, track_running_stats=True)
                (5): ReLU6(inplace=True)
                (6): Conv2d(384, 96, kernel_size=(1, 1), stride=(1, 1), bias=False)
                (7): BatchNorm2d(96, eps=1e-05, momentum=0.1, affine=True, track_running_stats=True)
              )
            )
            (12): InvertedResidual(
              (conv): Sequential(
                (0): Conv2d(96, 576, kernel_size=(1, 1), stride=(1, 1), bias=False)
                (1): BatchNorm2d(576, eps=1e-05, momentum=0.1, affine=True, track_running_stats=True)
                (2): ReLU6(inplace=True)
                (3): Conv2d(576, 576, kernel_size=(3, 3), stride=(1, 1), padding=(1, 1), groups=576, bias=False)
                (4): BatchNorm2d(576, eps=1e-05, momentum=0.1, affine=True, track_running_stats=True)
                (5): ReLU6(inplace=True)
                (6): Conv2d(576, 96, kernel_size=(1, 1), stride=(1, 1), bias=False)
                (7): BatchNorm2d(96, eps=1e-05, momentum=0.1, affine=True, track_running_stats=True)
              )
            )
            (13): InvertedResidual(
              (conv): Sequential(
                (0): Conv2d(96, 576, kernel_size=(1, 1), stride=(1, 1), bias=False)
                (1): BatchNorm2d(576, eps=1e-05, momentum=0.1, affine=True, track_running_stats=True)
                (2): ReLU6(inplace=True)
                (3): Conv2d(576, 576, kernel_size=(3, 3), stride=(1, 1), padding=(1, 1), groups=576, bias=False)
                (4): BatchNorm2d(576, eps=1e-05, momentum=0.1, affine=True, track_running_stats=True)
                (5): ReLU6(inplace=True)
                (6): Conv2d(576, 96, kernel_size=(1, 1), stride=(1, 1), bias=False)
                (7): BatchNorm2d(96, eps=1e-05, momentum=0.1, affine=True, track_running_stats=True)
              )
            )
            (14): InvertedResidual(
              (conv): Sequential(
                (0): Conv2d(96, 576, kernel_size=(1, 1), stride=(1, 1), bias=False)
                (1): BatchNorm2d(576, eps=1e-05, momentum=0.1, affine=True, track_running_stats=True)
                (2): ReLU6(inplace=True)
                (3): Conv2d(576, 576, kernel_size=(3, 3), stride=(2, 2), padding=(1, 1), groups=576, bias=False)
                (4): BatchNorm2d(576, eps=1e-05, momentum=0.1, affine=True, track_running_stats=True)
                (5): ReLU6(inplace=True)
                (6): Conv2d(576, 160, kernel_size=(1, 1), stride=(1, 1), bias=False)
                (7): BatchNorm2d(160, eps=1e-05, momentum=0.1, affine=True, track_running_stats=True)
              )
            )
            (15): InvertedResidual(
              (conv): Sequential(
                (0): Conv2d(160, 960, kernel_size=(1, 1), stride=(1, 1), bias=False)
                (1): BatchNorm2d(960, eps=1e-05, momentum=0.1, affine=True, track_running_stats=True)
                (2): ReLU6(inplace=True)
                (3): Conv2d(960, 960, kernel_size=(3, 3), stride=(1, 1), padding=(1, 1), groups=960, bias=False)
                (4): BatchNorm2d(960, eps=1e-05, momentum=0.1, affine=True, track_running_stats=True)
                (5): ReLU6(inplace=True)
                (6): Conv2d(960, 160, kernel_size=(1, 1), stride=(1, 1), bias=False)
                (7): BatchNorm2d(160, eps=1e-05, momentum=0.1, affine=True, track_running_stats=True)
              )
            )
            (16): InvertedResidual(
              (conv): Sequential(
                (0): Conv2d(160, 960, kernel_size=(1, 1), stride=(1, 1), bias=False)
                (1): BatchNorm2d(960, eps=1e-05, momentum=0.1, affine=True, track_running_stats=True)
                (2): ReLU6(inplace=True)
                (3): Conv2d(960, 960, kernel_size=(3, 3), stride=(1, 1), padding=(1, 1), groups=960, bias=False)
                (4): BatchNorm2d(960, eps=1e-05, momentum=0.1, affine=True, track_running_stats=True)
                (5): ReLU6(inplace=True)
                (6): Conv2d(960, 160, kernel_size=(1, 1), stride=(1, 1), bias=False)
                (7): BatchNorm2d(160, eps=1e-05, momentum=0.1, affine=True, track_running_stats=True)
              )
            )
            (17): InvertedResidual(
              (conv): Sequential(
                (0): Conv2d(160, 960, kernel_size=(1, 1), stride=(1, 1), bias=False)
                (1): BatchNorm2d(960, eps=1e-05, momentum=0.1, affine=True, track_running_stats=True)
                (2): ReLU6(inplace=True)
                (3): Conv2d(960, 960, kernel_size=(3, 3), stride=(1, 1), padding=(1, 1), groups=960, bias=False)
                (4): BatchNorm2d(960, eps=1e-05, momentum=0.1, affine=True, track_running_stats=True)
                (5): ReLU6(inplace=True)
                (6): Conv2d(960, 320, kernel_size=(1, 1), stride=(1, 1), bias=False)
                (7): BatchNorm2d(320, eps=1e-05, momentum=0.1, affine=True, track_running_stats=True)
              )
            )
          )
          (conv): Sequential(
            (0): Conv2d(320, 1280, kernel_size=(1, 1), stride=(1, 1), bias=False)
            (1): BatchNorm2d(1280, eps=1e-05, momentum=0.1, affine=True, track_running_stats=True)
            (2): ReLU6(inplace=True)
          )
        )
      )
    )
    (spp): SpatialPyramidPooling(
      (head_conv): Sequential(
        (0): Conv(
          (conv): Sequential(
            (0): Conv2d(1280, 640, kernel_size=(1, 1), stride=(1, 1), bias=False)
            (1): BatchNorm2d(640, eps=1e-05, momentum=0.1, affine=True, track_running_stats=True)
            (2): LeakyReLU(negative_slope=0.01)
          )
        )
        (1): Conv(
          (conv): Sequential(
            (0): Conv2d(640, 1280, kernel_size=(3, 3), stride=(1, 1), padding=(1, 1), bias=False)
            (1): BatchNorm2d(1280, eps=1e-05, momentum=0.1, affine=True, track_running_stats=True)
            (2): LeakyReLU(negative_slope=0.01)
          )
        )
        (2): Conv(
          (conv): Sequential(
            (0): Conv2d(1280, 640, kernel_size=(1, 1), stride=(1, 1), bias=False)
            (1): BatchNorm2d(640, eps=1e-05, momentum=0.1, affine=True, track_running_stats=True)
            (2): LeakyReLU(negative_slope=0.01)
          )
        )
      )
      (maxpools): ModuleList(
        (0): MaxPool2d(kernel_size=5, stride=1, padding=2, dilation=1, ceil_mode=False)
        (1): MaxPool2d(kernel_size=9, stride=1, padding=4, dilation=1, ceil_mode=False)
        (2): MaxPool2d(kernel_size=13, stride=1, padding=6, dilation=1, ceil_mode=False)
      )
    )
    (panet): PANet(
      (feature_transform3): Conv(
        (conv): Sequential(
          (0): Conv2d(32, 16, kernel_size=(1, 1), stride=(1, 1), bias=False)
          (1): BatchNorm2d(16, eps=1e-05, momentum=0.1, affine=True, track_running_stats=True)
          (2): LeakyReLU(negative_slope=0.01)
        )
      )
      (feature_transform4): Conv(
        (conv): Sequential(
          (0): Conv2d(96, 48, kernel_size=(1, 1), stride=(1, 1), bias=False)
          (1): BatchNorm2d(48, eps=1e-05, momentum=0.1, affine=True, track_running_stats=True)
          (2): LeakyReLU(negative_slope=0.01)
        )
      )
      (resample5_4): Upsample(
        (upsample): Sequential(
          (0): Conv(
            (conv): Sequential(
              (0): Conv2d(640, 48, kernel_size=(1, 1), stride=(1, 1), bias=False)
              (1): BatchNorm2d(48, eps=1e-05, momentum=0.1, affine=True, track_running_stats=True)
              (2): LeakyReLU(negative_slope=0.01)
            )
          )
          (1): Upsample(scale_factor=2.0, mode=nearest)
        )
      )
      (resample4_3): Upsample(
        (upsample): Sequential(
          (0): Conv(
            (conv): Sequential(
              (0): Conv2d(48, 16, kernel_size=(1, 1), stride=(1, 1), bias=False)
              (1): BatchNorm2d(16, eps=1e-05, momentum=0.1, affine=True, track_running_stats=True)
              (2): LeakyReLU(negative_slope=0.01)
            )
          )
          (1): Upsample(scale_factor=2.0, mode=nearest)
        )
      )
      (resample3_4): Downsample(
        (downsample): Conv(
          (conv): Sequential(
            (0): Conv2d(16, 48, kernel_size=(3, 3), stride=(2, 2), padding=(1, 1), bias=False)
            (1): BatchNorm2d(48, eps=1e-05, momentum=0.1, affine=True, track_running_stats=True)
            (2): LeakyReLU(negative_slope=0.01)
          )
        )
      )
      (resample4_5): Downsample(
        (downsample): Conv(
          (conv): Sequential(
            (0): Conv2d(48, 640, kernel_size=(3, 3), stride=(2, 2), padding=(1, 1), bias=False)
            (1): BatchNorm2d(640, eps=1e-05, momentum=0.1, affine=True, track_running_stats=True)
            (2): LeakyReLU(negative_slope=0.01)
          )
        )
      )
      (downstream_conv5): Sequential(
        (0): Conv(
          (conv): Sequential(
            (0): Conv2d(2560, 640, kernel_size=(1, 1), stride=(1, 1), bias=False)
            (1): BatchNorm2d(640, eps=1e-05, momentum=0.1, affine=True, track_running_stats=True)
            (2): LeakyReLU(negative_slope=0.01)
          )
        )
        (1): Conv(
          (conv): Sequential(
            (0): Conv2d(640, 1280, kernel_size=(3, 3), stride=(1, 1), padding=(1, 1), bias=False)
            (1): BatchNorm2d(1280, eps=1e-05, momentum=0.1, affine=True, track_running_stats=True)
            (2): LeakyReLU(negative_slope=0.01)
          )
        )
        (2): Conv(
          (conv): Sequential(
            (0): Conv2d(1280, 640, kernel_size=(1, 1), stride=(1, 1), bias=False)
            (1): BatchNorm2d(640, eps=1e-05, momentum=0.1, affine=True, track_running_stats=True)
            (2): LeakyReLU(negative_slope=0.01)
          )
        )
      )
      (downstream_conv4): Sequential(
        (0): Conv(
          (conv): Sequential(
            (0): Conv2d(96, 48, kernel_size=(1, 1), stride=(1, 1), bias=False)
            (1): BatchNorm2d(48, eps=1e-05, momentum=0.1, affine=True, track_running_stats=True)
            (2): LeakyReLU(negative_slope=0.01)
          )
        )
        (1): Conv(
          (conv): Sequential(
            (0): Conv2d(48, 96, kernel_size=(3, 3), stride=(1, 1), padding=(1, 1), bias=False)
            (1): BatchNorm2d(96, eps=1e-05, momentum=0.1, affine=True, track_running_stats=True)
            (2): LeakyReLU(negative_slope=0.01)
          )
        )
        (2): Conv(
          (conv): Sequential(
            (0): Conv2d(96, 48, kernel_size=(1, 1), stride=(1, 1), bias=False)
            (1): BatchNorm2d(48, eps=1e-05, momentum=0.1, affine=True, track_running_stats=True)
            (2): LeakyReLU(negative_slope=0.01)
          )
        )
        (3): Conv(
          (conv): Sequential(
            (0): Conv2d(48, 96, kernel_size=(3, 3), stride=(1, 1), padding=(1, 1), bias=False)
            (1): BatchNorm2d(96, eps=1e-05, momentum=0.1, affine=True, track_running_stats=True)
            (2): LeakyReLU(negative_slope=0.01)
          )
        )
        (4): Conv(
          (conv): Sequential(
            (0): Conv2d(96, 48, kernel_size=(1, 1), stride=(1, 1), bias=False)
            (1): BatchNorm2d(48, eps=1e-05, momentum=0.1, affine=True, track_running_stats=True)
            (2): LeakyReLU(negative_slope=0.01)
          )
        )
      )
      (downstream_conv3): Sequential(
        (0): Conv(
          (conv): Sequential(
            (0): Conv2d(32, 16, kernel_size=(1, 1), stride=(1, 1), bias=False)
            (1): BatchNorm2d(16, eps=1e-05, momentum=0.1, affine=True, track_running_stats=True)
            (2): LeakyReLU(negative_slope=0.01)
          )
        )
        (1): Conv(
          (conv): Sequential(
            (0): Conv2d(16, 32, kernel_size=(3, 3), stride=(1, 1), padding=(1, 1), bias=False)
            (1): BatchNorm2d(32, eps=1e-05, momentum=0.1, affine=True, track_running_stats=True)
            (2): LeakyReLU(negative_slope=0.01)
          )
        )
        (2): Conv(
          (conv): Sequential(
            (0): Conv2d(32, 16, kernel_size=(1, 1), stride=(1, 1), bias=False)
            (1): BatchNorm2d(16, eps=1e-05, momentum=0.1, affine=True, track_running_stats=True)
            (2): LeakyReLU(negative_slope=0.01)
          )
        )
        (3): Conv(
          (conv): Sequential(
            (0): Conv2d(16, 32, kernel_size=(3, 3), stride=(1, 1), padding=(1, 1), bias=False)
            (1): BatchNorm2d(32, eps=1e-05, momentum=0.1, affine=True, track_running_stats=True)
            (2): LeakyReLU(negative_slope=0.01)
          )
        )
        (4): Conv(
          (conv): Sequential(
            (0): Conv2d(32, 16, kernel_size=(1, 1), stride=(1, 1), bias=False)
            (1): BatchNorm2d(16, eps=1e-05, momentum=0.1, affine=True, track_running_stats=True)
            (2): LeakyReLU(negative_slope=0.01)
          )
        )
      )
      (upstream_conv4): Sequential(
        (0): Conv(
          (conv): Sequential(
            (0): Conv2d(96, 48, kernel_size=(1, 1), stride=(1, 1), bias=False)
            (1): BatchNorm2d(48, eps=1e-05, momentum=0.1, affine=True, track_running_stats=True)
            (2): LeakyReLU(negative_slope=0.01)
          )
        )
        (1): Conv(
          (conv): Sequential(
            (0): Conv2d(48, 96, kernel_size=(3, 3), stride=(1, 1), padding=(1, 1), bias=False)
            (1): BatchNorm2d(96, eps=1e-05, momentum=0.1, affine=True, track_running_stats=True)
            (2): LeakyReLU(negative_slope=0.01)
          )
        )
        (2): Conv(
          (conv): Sequential(
            (0): Conv2d(96, 48, kernel_size=(1, 1), stride=(1, 1), bias=False)
            (1): BatchNorm2d(48, eps=1e-05, momentum=0.1, affine=True, track_running_stats=True)
            (2): LeakyReLU(negative_slope=0.01)
          )
        )
        (3): Conv(
          (conv): Sequential(
            (0): Conv2d(48, 96, kernel_size=(3, 3), stride=(1, 1), padding=(1, 1), bias=False)
            (1): BatchNorm2d(96, eps=1e-05, momentum=0.1, affine=True, track_running_stats=True)
            (2): LeakyReLU(negative_slope=0.01)
          )
        )
        (4): Conv(
          (conv): Sequential(
            (0): Conv2d(96, 48, kernel_size=(1, 1), stride=(1, 1), bias=False)
            (1): BatchNorm2d(48, eps=1e-05, momentum=0.1, affine=True, track_running_stats=True)
            (2): LeakyReLU(negative_slope=0.01)
          )
        )
      )
      (upstream_conv5): Sequential(
        (0): Conv(
          (conv): Sequential(
            (0): Conv2d(1280, 640, kernel_size=(1, 1), stride=(1, 1), bias=False)
            (1): BatchNorm2d(640, eps=1e-05, momentum=0.1, affine=True, track_running_stats=True)
            (2): LeakyReLU(negative_slope=0.01)
          )
        )
        (1): Conv(
          (conv): Sequential(
            (0): Conv2d(640, 1280, kernel_size=(3, 3), stride=(1, 1), padding=(1, 1), bias=False)
            (1): BatchNorm2d(1280, eps=1e-05, momentum=0.1, affine=True, track_running_stats=True)
            (2): LeakyReLU(negative_slope=0.01)
          )
        )
        (2): Conv(
          (conv): Sequential(
            (0): Conv2d(1280, 640, kernel_size=(1, 1), stride=(1, 1), bias=False)
            (1): BatchNorm2d(640, eps=1e-05, momentum=0.1, affine=True, track_running_stats=True)
            (2): LeakyReLU(negative_slope=0.01)
          )
        )
        (3): Conv(
          (conv): Sequential(
            (0): Conv2d(640, 1280, kernel_size=(3, 3), stride=(1, 1), padding=(1, 1), bias=False)
            (1): BatchNorm2d(1280, eps=1e-05, momentum=0.1, affine=True, track_running_stats=True)
            (2): LeakyReLU(negative_slope=0.01)
          )
        )
        (4): Conv(
          (conv): Sequential(
            (0): Conv2d(1280, 640, kernel_size=(1, 1), stride=(1, 1), bias=False)
            (1): BatchNorm2d(640, eps=1e-05, momentum=0.1, affine=True, track_running_stats=True)
            (2): LeakyReLU(negative_slope=0.01)
          )
        )
      )
    )
    (predict_net): PredictNet(
      (predict_conv): ModuleList(
        (0): Sequential(
          (0): Conv(
            (conv): Sequential(
              (0): Conv2d(16, 32, kernel_size=(3, 3), stride=(1, 1), padding=(1, 1), bias=False)
              (1): BatchNorm2d(32, eps=1e-05, momentum=0.1, affine=True, track_running_stats=True)
              (2): LeakyReLU(negative_slope=0.01)
            )
          )
          (1): Conv2d(32, 75, kernel_size=(1, 1), stride=(1, 1))
        )
        (1): Sequential(
          (0): Conv(
            (conv): Sequential(
              (0): Conv2d(48, 96, kernel_size=(3, 3), stride=(1, 1), padding=(1, 1), bias=False)
              (1): BatchNorm2d(96, eps=1e-05, momentum=0.1, affine=True, track_running_stats=True)
              (2): LeakyReLU(negative_slope=0.01)
            )
          )
          (1): Conv2d(96, 75, kernel_size=(1, 1), stride=(1, 1))
        )
        (2): Sequential(
          (0): Conv(
            (conv): Sequential(
              (0): Conv2d(640, 1280, kernel_size=(3, 3), stride=(1, 1), padding=(1, 1), bias=False)
              (1): BatchNorm2d(1280, eps=1e-05, momentum=0.1, affine=True, track_running_stats=True)
              (2): LeakyReLU(negative_slope=0.01)
            )
          )
          (1): Conv2d(1280, 75, kernel_size=(1, 1), stride=(1, 1))
        )
      )
    )
  )
  (_Build_Model__head_s): Yolo_head()
  (_Build_Model__head_m): Yolo_head()
  (_Build_Model__head_l): Yolo_head()
) 
[2021-05-16 11:59:04,292]-[main.py line:166]:Train datasets number is : 5011 
[2021-05-16 11:59:04,292]-[main.py line:175]:        =======  start  training   ======      
[2021-05-16 11:59:04,299]-[main.py line:181]:===Epoch:[0/120]=== 
[2021-05-16 13:47:06,416]-[main.py line:162]:Training start,img size is: 416,batchsize is: 1,work number is 0 
[2021-05-16 13:47:06,417]-[main.py line:165]:Build_Model(
  (_Build_Model__yolov4): YOLOv4(
    (backbone): MobilenetV2(
      (_MobilenetV2__submodule): _MobileNetV2(
        (features): Sequential(
          (0): Sequential(
            (0): Conv2d(3, 32, kernel_size=(3, 3), stride=(2, 2), padding=(1, 1), bias=False)
            (1): BatchNorm2d(32, eps=1e-05, momentum=0.1, affine=True, track_running_stats=True)
            (2): ReLU6(inplace=True)
          )
          (1): InvertedResidual(
            (conv): Sequential(
              (0): Conv2d(32, 32, kernel_size=(3, 3), stride=(1, 1), padding=(1, 1), groups=32, bias=False)
              (1): BatchNorm2d(32, eps=1e-05, momentum=0.1, affine=True, track_running_stats=True)
              (2): ReLU6(inplace=True)
              (3): Conv2d(32, 16, kernel_size=(1, 1), stride=(1, 1), bias=False)
              (4): BatchNorm2d(16, eps=1e-05, momentum=0.1, affine=True, track_running_stats=True)
            )
          )
          (2): InvertedResidual(
            (conv): Sequential(
              (0): Conv2d(16, 96, kernel_size=(1, 1), stride=(1, 1), bias=False)
              (1): BatchNorm2d(96, eps=1e-05, momentum=0.1, affine=True, track_running_stats=True)
              (2): ReLU6(inplace=True)
              (3): Conv2d(96, 96, kernel_size=(3, 3), stride=(2, 2), padding=(1, 1), groups=96, bias=False)
              (4): BatchNorm2d(96, eps=1e-05, momentum=0.1, affine=True, track_running_stats=True)
              (5): ReLU6(inplace=True)
              (6): Conv2d(96, 24, kernel_size=(1, 1), stride=(1, 1), bias=False)
              (7): BatchNorm2d(24, eps=1e-05, momentum=0.1, affine=True, track_running_stats=True)
            )
          )
          (3): InvertedResidual(
            (conv): Sequential(
              (0): Conv2d(24, 144, kernel_size=(1, 1), stride=(1, 1), bias=False)
              (1): BatchNorm2d(144, eps=1e-05, momentum=0.1, affine=True, track_running_stats=True)
              (2): ReLU6(inplace=True)
              (3): Conv2d(144, 144, kernel_size=(3, 3), stride=(1, 1), padding=(1, 1), groups=144, bias=False)
              (4): BatchNorm2d(144, eps=1e-05, momentum=0.1, affine=True, track_running_stats=True)
              (5): ReLU6(inplace=True)
              (6): Conv2d(144, 24, kernel_size=(1, 1), stride=(1, 1), bias=False)
              (7): BatchNorm2d(24, eps=1e-05, momentum=0.1, affine=True, track_running_stats=True)
            )
          )
          (4): InvertedResidual(
            (conv): Sequential(
              (0): Conv2d(24, 144, kernel_size=(1, 1), stride=(1, 1), bias=False)
              (1): BatchNorm2d(144, eps=1e-05, momentum=0.1, affine=True, track_running_stats=True)
              (2): ReLU6(inplace=True)
              (3): Conv2d(144, 144, kernel_size=(3, 3), stride=(2, 2), padding=(1, 1), groups=144, bias=False)
              (4): BatchNorm2d(144, eps=1e-05, momentum=0.1, affine=True, track_running_stats=True)
              (5): ReLU6(inplace=True)
              (6): Conv2d(144, 32, kernel_size=(1, 1), stride=(1, 1), bias=False)
              (7): BatchNorm2d(32, eps=1e-05, momentum=0.1, affine=True, track_running_stats=True)
            )
          )
          (5): InvertedResidual(
            (conv): Sequential(
              (0): Conv2d(32, 192, kernel_size=(1, 1), stride=(1, 1), bias=False)
              (1): BatchNorm2d(192, eps=1e-05, momentum=0.1, affine=True, track_running_stats=True)
              (2): ReLU6(inplace=True)
              (3): Conv2d(192, 192, kernel_size=(3, 3), stride=(1, 1), padding=(1, 1), groups=192, bias=False)
              (4): BatchNorm2d(192, eps=1e-05, momentum=0.1, affine=True, track_running_stats=True)
              (5): ReLU6(inplace=True)
              (6): Conv2d(192, 32, kernel_size=(1, 1), stride=(1, 1), bias=False)
              (7): BatchNorm2d(32, eps=1e-05, momentum=0.1, affine=True, track_running_stats=True)
            )
          )
          (6): InvertedResidual(
            (conv): Sequential(
              (0): Conv2d(32, 192, kernel_size=(1, 1), stride=(1, 1), bias=False)
              (1): BatchNorm2d(192, eps=1e-05, momentum=0.1, affine=True, track_running_stats=True)
              (2): ReLU6(inplace=True)
              (3): Conv2d(192, 192, kernel_size=(3, 3), stride=(1, 1), padding=(1, 1), groups=192, bias=False)
              (4): BatchNorm2d(192, eps=1e-05, momentum=0.1, affine=True, track_running_stats=True)
              (5): ReLU6(inplace=True)
              (6): Conv2d(192, 32, kernel_size=(1, 1), stride=(1, 1), bias=False)
              (7): BatchNorm2d(32, eps=1e-05, momentum=0.1, affine=True, track_running_stats=True)
            )
          )
          (7): InvertedResidual(
            (conv): Sequential(
              (0): Conv2d(32, 192, kernel_size=(1, 1), stride=(1, 1), bias=False)
              (1): BatchNorm2d(192, eps=1e-05, momentum=0.1, affine=True, track_running_stats=True)
              (2): ReLU6(inplace=True)
              (3): Conv2d(192, 192, kernel_size=(3, 3), stride=(2, 2), padding=(1, 1), groups=192, bias=False)
              (4): BatchNorm2d(192, eps=1e-05, momentum=0.1, affine=True, track_running_stats=True)
              (5): ReLU6(inplace=True)
              (6): Conv2d(192, 64, kernel_size=(1, 1), stride=(1, 1), bias=False)
              (7): BatchNorm2d(64, eps=1e-05, momentum=0.1, affine=True, track_running_stats=True)
            )
          )
          (8): InvertedResidual(
            (conv): Sequential(
              (0): Conv2d(64, 384, kernel_size=(1, 1), stride=(1, 1), bias=False)
              (1): BatchNorm2d(384, eps=1e-05, momentum=0.1, affine=True, track_running_stats=True)
              (2): ReLU6(inplace=True)
              (3): Conv2d(384, 384, kernel_size=(3, 3), stride=(1, 1), padding=(1, 1), groups=384, bias=False)
              (4): BatchNorm2d(384, eps=1e-05, momentum=0.1, affine=True, track_running_stats=True)
              (5): ReLU6(inplace=True)
              (6): Conv2d(384, 64, kernel_size=(1, 1), stride=(1, 1), bias=False)
              (7): BatchNorm2d(64, eps=1e-05, momentum=0.1, affine=True, track_running_stats=True)
            )
          )
          (9): InvertedResidual(
            (conv): Sequential(
              (0): Conv2d(64, 384, kernel_size=(1, 1), stride=(1, 1), bias=False)
              (1): BatchNorm2d(384, eps=1e-05, momentum=0.1, affine=True, track_running_stats=True)
              (2): ReLU6(inplace=True)
              (3): Conv2d(384, 384, kernel_size=(3, 3), stride=(1, 1), padding=(1, 1), groups=384, bias=False)
              (4): BatchNorm2d(384, eps=1e-05, momentum=0.1, affine=True, track_running_stats=True)
              (5): ReLU6(inplace=True)
              (6): Conv2d(384, 64, kernel_size=(1, 1), stride=(1, 1), bias=False)
              (7): BatchNorm2d(64, eps=1e-05, momentum=0.1, affine=True, track_running_stats=True)
            )
          )
          (10): InvertedResidual(
            (conv): Sequential(
              (0): Conv2d(64, 384, kernel_size=(1, 1), stride=(1, 1), bias=False)
              (1): BatchNorm2d(384, eps=1e-05, momentum=0.1, affine=True, track_running_stats=True)
              (2): ReLU6(inplace=True)
              (3): Conv2d(384, 384, kernel_size=(3, 3), stride=(1, 1), padding=(1, 1), groups=384, bias=False)
              (4): BatchNorm2d(384, eps=1e-05, momentum=0.1, affine=True, track_running_stats=True)
              (5): ReLU6(inplace=True)
              (6): Conv2d(384, 64, kernel_size=(1, 1), stride=(1, 1), bias=False)
              (7): BatchNorm2d(64, eps=1e-05, momentum=0.1, affine=True, track_running_stats=True)
            )
          )
          (11): InvertedResidual(
            (conv): Sequential(
              (0): Conv2d(64, 384, kernel_size=(1, 1), stride=(1, 1), bias=False)
              (1): BatchNorm2d(384, eps=1e-05, momentum=0.1, affine=True, track_running_stats=True)
              (2): ReLU6(inplace=True)
              (3): Conv2d(384, 384, kernel_size=(3, 3), stride=(1, 1), padding=(1, 1), groups=384, bias=False)
              (4): BatchNorm2d(384, eps=1e-05, momentum=0.1, affine=True, track_running_stats=True)
              (5): ReLU6(inplace=True)
              (6): Conv2d(384, 96, kernel_size=(1, 1), stride=(1, 1), bias=False)
              (7): BatchNorm2d(96, eps=1e-05, momentum=0.1, affine=True, track_running_stats=True)
            )
          )
          (12): InvertedResidual(
            (conv): Sequential(
              (0): Conv2d(96, 576, kernel_size=(1, 1), stride=(1, 1), bias=False)
              (1): BatchNorm2d(576, eps=1e-05, momentum=0.1, affine=True, track_running_stats=True)
              (2): ReLU6(inplace=True)
              (3): Conv2d(576, 576, kernel_size=(3, 3), stride=(1, 1), padding=(1, 1), groups=576, bias=False)
              (4): BatchNorm2d(576, eps=1e-05, momentum=0.1, affine=True, track_running_stats=True)
              (5): ReLU6(inplace=True)
              (6): Conv2d(576, 96, kernel_size=(1, 1), stride=(1, 1), bias=False)
              (7): BatchNorm2d(96, eps=1e-05, momentum=0.1, affine=True, track_running_stats=True)
            )
          )
          (13): InvertedResidual(
            (conv): Sequential(
              (0): Conv2d(96, 576, kernel_size=(1, 1), stride=(1, 1), bias=False)
              (1): BatchNorm2d(576, eps=1e-05, momentum=0.1, affine=True, track_running_stats=True)
              (2): ReLU6(inplace=True)
              (3): Conv2d(576, 576, kernel_size=(3, 3), stride=(1, 1), padding=(1, 1), groups=576, bias=False)
              (4): BatchNorm2d(576, eps=1e-05, momentum=0.1, affine=True, track_running_stats=True)
              (5): ReLU6(inplace=True)
              (6): Conv2d(576, 96, kernel_size=(1, 1), stride=(1, 1), bias=False)
              (7): BatchNorm2d(96, eps=1e-05, momentum=0.1, affine=True, track_running_stats=True)
            )
          )
          (14): InvertedResidual(
            (conv): Sequential(
              (0): Conv2d(96, 576, kernel_size=(1, 1), stride=(1, 1), bias=False)
              (1): BatchNorm2d(576, eps=1e-05, momentum=0.1, affine=True, track_running_stats=True)
              (2): ReLU6(inplace=True)
              (3): Conv2d(576, 576, kernel_size=(3, 3), stride=(2, 2), padding=(1, 1), groups=576, bias=False)
              (4): BatchNorm2d(576, eps=1e-05, momentum=0.1, affine=True, track_running_stats=True)
              (5): ReLU6(inplace=True)
              (6): Conv2d(576, 160, kernel_size=(1, 1), stride=(1, 1), bias=False)
              (7): BatchNorm2d(160, eps=1e-05, momentum=0.1, affine=True, track_running_stats=True)
            )
          )
          (15): InvertedResidual(
            (conv): Sequential(
              (0): Conv2d(160, 960, kernel_size=(1, 1), stride=(1, 1), bias=False)
              (1): BatchNorm2d(960, eps=1e-05, momentum=0.1, affine=True, track_running_stats=True)
              (2): ReLU6(inplace=True)
              (3): Conv2d(960, 960, kernel_size=(3, 3), stride=(1, 1), padding=(1, 1), groups=960, bias=False)
              (4): BatchNorm2d(960, eps=1e-05, momentum=0.1, affine=True, track_running_stats=True)
              (5): ReLU6(inplace=True)
              (6): Conv2d(960, 160, kernel_size=(1, 1), stride=(1, 1), bias=False)
              (7): BatchNorm2d(160, eps=1e-05, momentum=0.1, affine=True, track_running_stats=True)
            )
          )
          (16): InvertedResidual(
            (conv): Sequential(
              (0): Conv2d(160, 960, kernel_size=(1, 1), stride=(1, 1), bias=False)
              (1): BatchNorm2d(960, eps=1e-05, momentum=0.1, affine=True, track_running_stats=True)
              (2): ReLU6(inplace=True)
              (3): Conv2d(960, 960, kernel_size=(3, 3), stride=(1, 1), padding=(1, 1), groups=960, bias=False)
              (4): BatchNorm2d(960, eps=1e-05, momentum=0.1, affine=True, track_running_stats=True)
              (5): ReLU6(inplace=True)
              (6): Conv2d(960, 160, kernel_size=(1, 1), stride=(1, 1), bias=False)
              (7): BatchNorm2d(160, eps=1e-05, momentum=0.1, affine=True, track_running_stats=True)
            )
          )
          (17): InvertedResidual(
            (conv): Sequential(
              (0): Conv2d(160, 960, kernel_size=(1, 1), stride=(1, 1), bias=False)
              (1): BatchNorm2d(960, eps=1e-05, momentum=0.1, affine=True, track_running_stats=True)
              (2): ReLU6(inplace=True)
              (3): Conv2d(960, 960, kernel_size=(3, 3), stride=(1, 1), padding=(1, 1), groups=960, bias=False)
              (4): BatchNorm2d(960, eps=1e-05, momentum=0.1, affine=True, track_running_stats=True)
              (5): ReLU6(inplace=True)
              (6): Conv2d(960, 320, kernel_size=(1, 1), stride=(1, 1), bias=False)
              (7): BatchNorm2d(320, eps=1e-05, momentum=0.1, affine=True, track_running_stats=True)
            )
          )
        )
        (conv): Sequential(
          (0): Conv2d(320, 1280, kernel_size=(1, 1), stride=(1, 1), bias=False)
          (1): BatchNorm2d(1280, eps=1e-05, momentum=0.1, affine=True, track_running_stats=True)
          (2): ReLU6(inplace=True)
        )
      )
      (_MobilenetV2__extractor): FeatureExtractor(
        (submodule): _MobileNetV2(
          (features): Sequential(
            (0): Sequential(
              (0): Conv2d(3, 32, kernel_size=(3, 3), stride=(2, 2), padding=(1, 1), bias=False)
              (1): BatchNorm2d(32, eps=1e-05, momentum=0.1, affine=True, track_running_stats=True)
              (2): ReLU6(inplace=True)
            )
            (1): InvertedResidual(
              (conv): Sequential(
                (0): Conv2d(32, 32, kernel_size=(3, 3), stride=(1, 1), padding=(1, 1), groups=32, bias=False)
                (1): BatchNorm2d(32, eps=1e-05, momentum=0.1, affine=True, track_running_stats=True)
                (2): ReLU6(inplace=True)
                (3): Conv2d(32, 16, kernel_size=(1, 1), stride=(1, 1), bias=False)
                (4): BatchNorm2d(16, eps=1e-05, momentum=0.1, affine=True, track_running_stats=True)
              )
            )
            (2): InvertedResidual(
              (conv): Sequential(
                (0): Conv2d(16, 96, kernel_size=(1, 1), stride=(1, 1), bias=False)
                (1): BatchNorm2d(96, eps=1e-05, momentum=0.1, affine=True, track_running_stats=True)
                (2): ReLU6(inplace=True)
                (3): Conv2d(96, 96, kernel_size=(3, 3), stride=(2, 2), padding=(1, 1), groups=96, bias=False)
                (4): BatchNorm2d(96, eps=1e-05, momentum=0.1, affine=True, track_running_stats=True)
                (5): ReLU6(inplace=True)
                (6): Conv2d(96, 24, kernel_size=(1, 1), stride=(1, 1), bias=False)
                (7): BatchNorm2d(24, eps=1e-05, momentum=0.1, affine=True, track_running_stats=True)
              )
            )
            (3): InvertedResidual(
              (conv): Sequential(
                (0): Conv2d(24, 144, kernel_size=(1, 1), stride=(1, 1), bias=False)
                (1): BatchNorm2d(144, eps=1e-05, momentum=0.1, affine=True, track_running_stats=True)
                (2): ReLU6(inplace=True)
                (3): Conv2d(144, 144, kernel_size=(3, 3), stride=(1, 1), padding=(1, 1), groups=144, bias=False)
                (4): BatchNorm2d(144, eps=1e-05, momentum=0.1, affine=True, track_running_stats=True)
                (5): ReLU6(inplace=True)
                (6): Conv2d(144, 24, kernel_size=(1, 1), stride=(1, 1), bias=False)
                (7): BatchNorm2d(24, eps=1e-05, momentum=0.1, affine=True, track_running_stats=True)
              )
            )
            (4): InvertedResidual(
              (conv): Sequential(
                (0): Conv2d(24, 144, kernel_size=(1, 1), stride=(1, 1), bias=False)
                (1): BatchNorm2d(144, eps=1e-05, momentum=0.1, affine=True, track_running_stats=True)
                (2): ReLU6(inplace=True)
                (3): Conv2d(144, 144, kernel_size=(3, 3), stride=(2, 2), padding=(1, 1), groups=144, bias=False)
                (4): BatchNorm2d(144, eps=1e-05, momentum=0.1, affine=True, track_running_stats=True)
                (5): ReLU6(inplace=True)
                (6): Conv2d(144, 32, kernel_size=(1, 1), stride=(1, 1), bias=False)
                (7): BatchNorm2d(32, eps=1e-05, momentum=0.1, affine=True, track_running_stats=True)
              )
            )
            (5): InvertedResidual(
              (conv): Sequential(
                (0): Conv2d(32, 192, kernel_size=(1, 1), stride=(1, 1), bias=False)
                (1): BatchNorm2d(192, eps=1e-05, momentum=0.1, affine=True, track_running_stats=True)
                (2): ReLU6(inplace=True)
                (3): Conv2d(192, 192, kernel_size=(3, 3), stride=(1, 1), padding=(1, 1), groups=192, bias=False)
                (4): BatchNorm2d(192, eps=1e-05, momentum=0.1, affine=True, track_running_stats=True)
                (5): ReLU6(inplace=True)
                (6): Conv2d(192, 32, kernel_size=(1, 1), stride=(1, 1), bias=False)
                (7): BatchNorm2d(32, eps=1e-05, momentum=0.1, affine=True, track_running_stats=True)
              )
            )
            (6): InvertedResidual(
              (conv): Sequential(
                (0): Conv2d(32, 192, kernel_size=(1, 1), stride=(1, 1), bias=False)
                (1): BatchNorm2d(192, eps=1e-05, momentum=0.1, affine=True, track_running_stats=True)
                (2): ReLU6(inplace=True)
                (3): Conv2d(192, 192, kernel_size=(3, 3), stride=(1, 1), padding=(1, 1), groups=192, bias=False)
                (4): BatchNorm2d(192, eps=1e-05, momentum=0.1, affine=True, track_running_stats=True)
                (5): ReLU6(inplace=True)
                (6): Conv2d(192, 32, kernel_size=(1, 1), stride=(1, 1), bias=False)
                (7): BatchNorm2d(32, eps=1e-05, momentum=0.1, affine=True, track_running_stats=True)
              )
            )
            (7): InvertedResidual(
              (conv): Sequential(
                (0): Conv2d(32, 192, kernel_size=(1, 1), stride=(1, 1), bias=False)
                (1): BatchNorm2d(192, eps=1e-05, momentum=0.1, affine=True, track_running_stats=True)
                (2): ReLU6(inplace=True)
                (3): Conv2d(192, 192, kernel_size=(3, 3), stride=(2, 2), padding=(1, 1), groups=192, bias=False)
                (4): BatchNorm2d(192, eps=1e-05, momentum=0.1, affine=True, track_running_stats=True)
                (5): ReLU6(inplace=True)
                (6): Conv2d(192, 64, kernel_size=(1, 1), stride=(1, 1), bias=False)
                (7): BatchNorm2d(64, eps=1e-05, momentum=0.1, affine=True, track_running_stats=True)
              )
            )
            (8): InvertedResidual(
              (conv): Sequential(
                (0): Conv2d(64, 384, kernel_size=(1, 1), stride=(1, 1), bias=False)
                (1): BatchNorm2d(384, eps=1e-05, momentum=0.1, affine=True, track_running_stats=True)
                (2): ReLU6(inplace=True)
                (3): Conv2d(384, 384, kernel_size=(3, 3), stride=(1, 1), padding=(1, 1), groups=384, bias=False)
                (4): BatchNorm2d(384, eps=1e-05, momentum=0.1, affine=True, track_running_stats=True)
                (5): ReLU6(inplace=True)
                (6): Conv2d(384, 64, kernel_size=(1, 1), stride=(1, 1), bias=False)
                (7): BatchNorm2d(64, eps=1e-05, momentum=0.1, affine=True, track_running_stats=True)
              )
            )
            (9): InvertedResidual(
              (conv): Sequential(
                (0): Conv2d(64, 384, kernel_size=(1, 1), stride=(1, 1), bias=False)
                (1): BatchNorm2d(384, eps=1e-05, momentum=0.1, affine=True, track_running_stats=True)
                (2): ReLU6(inplace=True)
                (3): Conv2d(384, 384, kernel_size=(3, 3), stride=(1, 1), padding=(1, 1), groups=384, bias=False)
                (4): BatchNorm2d(384, eps=1e-05, momentum=0.1, affine=True, track_running_stats=True)
                (5): ReLU6(inplace=True)
                (6): Conv2d(384, 64, kernel_size=(1, 1), stride=(1, 1), bias=False)
                (7): BatchNorm2d(64, eps=1e-05, momentum=0.1, affine=True, track_running_stats=True)
              )
            )
            (10): InvertedResidual(
              (conv): Sequential(
                (0): Conv2d(64, 384, kernel_size=(1, 1), stride=(1, 1), bias=False)
                (1): BatchNorm2d(384, eps=1e-05, momentum=0.1, affine=True, track_running_stats=True)
                (2): ReLU6(inplace=True)
                (3): Conv2d(384, 384, kernel_size=(3, 3), stride=(1, 1), padding=(1, 1), groups=384, bias=False)
                (4): BatchNorm2d(384, eps=1e-05, momentum=0.1, affine=True, track_running_stats=True)
                (5): ReLU6(inplace=True)
                (6): Conv2d(384, 64, kernel_size=(1, 1), stride=(1, 1), bias=False)
                (7): BatchNorm2d(64, eps=1e-05, momentum=0.1, affine=True, track_running_stats=True)
              )
            )
            (11): InvertedResidual(
              (conv): Sequential(
                (0): Conv2d(64, 384, kernel_size=(1, 1), stride=(1, 1), bias=False)
                (1): BatchNorm2d(384, eps=1e-05, momentum=0.1, affine=True, track_running_stats=True)
                (2): ReLU6(inplace=True)
                (3): Conv2d(384, 384, kernel_size=(3, 3), stride=(1, 1), padding=(1, 1), groups=384, bias=False)
                (4): BatchNorm2d(384, eps=1e-05, momentum=0.1, affine=True, track_running_stats=True)
                (5): ReLU6(inplace=True)
                (6): Conv2d(384, 96, kernel_size=(1, 1), stride=(1, 1), bias=False)
                (7): BatchNorm2d(96, eps=1e-05, momentum=0.1, affine=True, track_running_stats=True)
              )
            )
            (12): InvertedResidual(
              (conv): Sequential(
                (0): Conv2d(96, 576, kernel_size=(1, 1), stride=(1, 1), bias=False)
                (1): BatchNorm2d(576, eps=1e-05, momentum=0.1, affine=True, track_running_stats=True)
                (2): ReLU6(inplace=True)
                (3): Conv2d(576, 576, kernel_size=(3, 3), stride=(1, 1), padding=(1, 1), groups=576, bias=False)
                (4): BatchNorm2d(576, eps=1e-05, momentum=0.1, affine=True, track_running_stats=True)
                (5): ReLU6(inplace=True)
                (6): Conv2d(576, 96, kernel_size=(1, 1), stride=(1, 1), bias=False)
                (7): BatchNorm2d(96, eps=1e-05, momentum=0.1, affine=True, track_running_stats=True)
              )
            )
            (13): InvertedResidual(
              (conv): Sequential(
                (0): Conv2d(96, 576, kernel_size=(1, 1), stride=(1, 1), bias=False)
                (1): BatchNorm2d(576, eps=1e-05, momentum=0.1, affine=True, track_running_stats=True)
                (2): ReLU6(inplace=True)
                (3): Conv2d(576, 576, kernel_size=(3, 3), stride=(1, 1), padding=(1, 1), groups=576, bias=False)
                (4): BatchNorm2d(576, eps=1e-05, momentum=0.1, affine=True, track_running_stats=True)
                (5): ReLU6(inplace=True)
                (6): Conv2d(576, 96, kernel_size=(1, 1), stride=(1, 1), bias=False)
                (7): BatchNorm2d(96, eps=1e-05, momentum=0.1, affine=True, track_running_stats=True)
              )
            )
            (14): InvertedResidual(
              (conv): Sequential(
                (0): Conv2d(96, 576, kernel_size=(1, 1), stride=(1, 1), bias=False)
                (1): BatchNorm2d(576, eps=1e-05, momentum=0.1, affine=True, track_running_stats=True)
                (2): ReLU6(inplace=True)
                (3): Conv2d(576, 576, kernel_size=(3, 3), stride=(2, 2), padding=(1, 1), groups=576, bias=False)
                (4): BatchNorm2d(576, eps=1e-05, momentum=0.1, affine=True, track_running_stats=True)
                (5): ReLU6(inplace=True)
                (6): Conv2d(576, 160, kernel_size=(1, 1), stride=(1, 1), bias=False)
                (7): BatchNorm2d(160, eps=1e-05, momentum=0.1, affine=True, track_running_stats=True)
              )
            )
            (15): InvertedResidual(
              (conv): Sequential(
                (0): Conv2d(160, 960, kernel_size=(1, 1), stride=(1, 1), bias=False)
                (1): BatchNorm2d(960, eps=1e-05, momentum=0.1, affine=True, track_running_stats=True)
                (2): ReLU6(inplace=True)
                (3): Conv2d(960, 960, kernel_size=(3, 3), stride=(1, 1), padding=(1, 1), groups=960, bias=False)
                (4): BatchNorm2d(960, eps=1e-05, momentum=0.1, affine=True, track_running_stats=True)
                (5): ReLU6(inplace=True)
                (6): Conv2d(960, 160, kernel_size=(1, 1), stride=(1, 1), bias=False)
                (7): BatchNorm2d(160, eps=1e-05, momentum=0.1, affine=True, track_running_stats=True)
              )
            )
            (16): InvertedResidual(
              (conv): Sequential(
                (0): Conv2d(160, 960, kernel_size=(1, 1), stride=(1, 1), bias=False)
                (1): BatchNorm2d(960, eps=1e-05, momentum=0.1, affine=True, track_running_stats=True)
                (2): ReLU6(inplace=True)
                (3): Conv2d(960, 960, kernel_size=(3, 3), stride=(1, 1), padding=(1, 1), groups=960, bias=False)
                (4): BatchNorm2d(960, eps=1e-05, momentum=0.1, affine=True, track_running_stats=True)
                (5): ReLU6(inplace=True)
                (6): Conv2d(960, 160, kernel_size=(1, 1), stride=(1, 1), bias=False)
                (7): BatchNorm2d(160, eps=1e-05, momentum=0.1, affine=True, track_running_stats=True)
              )
            )
            (17): InvertedResidual(
              (conv): Sequential(
                (0): Conv2d(160, 960, kernel_size=(1, 1), stride=(1, 1), bias=False)
                (1): BatchNorm2d(960, eps=1e-05, momentum=0.1, affine=True, track_running_stats=True)
                (2): ReLU6(inplace=True)
                (3): Conv2d(960, 960, kernel_size=(3, 3), stride=(1, 1), padding=(1, 1), groups=960, bias=False)
                (4): BatchNorm2d(960, eps=1e-05, momentum=0.1, affine=True, track_running_stats=True)
                (5): ReLU6(inplace=True)
                (6): Conv2d(960, 320, kernel_size=(1, 1), stride=(1, 1), bias=False)
                (7): BatchNorm2d(320, eps=1e-05, momentum=0.1, affine=True, track_running_stats=True)
              )
            )
          )
          (conv): Sequential(
            (0): Conv2d(320, 1280, kernel_size=(1, 1), stride=(1, 1), bias=False)
            (1): BatchNorm2d(1280, eps=1e-05, momentum=0.1, affine=True, track_running_stats=True)
            (2): ReLU6(inplace=True)
          )
        )
      )
    )
    (spp): SpatialPyramidPooling(
      (head_conv): Sequential(
        (0): Conv(
          (conv): Sequential(
            (0): Conv2d(1280, 640, kernel_size=(1, 1), stride=(1, 1), bias=False)
            (1): BatchNorm2d(640, eps=1e-05, momentum=0.1, affine=True, track_running_stats=True)
            (2): LeakyReLU(negative_slope=0.01)
          )
        )
        (1): Conv(
          (conv): Sequential(
            (0): Conv2d(640, 1280, kernel_size=(3, 3), stride=(1, 1), padding=(1, 1), bias=False)
            (1): BatchNorm2d(1280, eps=1e-05, momentum=0.1, affine=True, track_running_stats=True)
            (2): LeakyReLU(negative_slope=0.01)
          )
        )
        (2): Conv(
          (conv): Sequential(
            (0): Conv2d(1280, 640, kernel_size=(1, 1), stride=(1, 1), bias=False)
            (1): BatchNorm2d(640, eps=1e-05, momentum=0.1, affine=True, track_running_stats=True)
            (2): LeakyReLU(negative_slope=0.01)
          )
        )
      )
      (maxpools): ModuleList(
        (0): MaxPool2d(kernel_size=5, stride=1, padding=2, dilation=1, ceil_mode=False)
        (1): MaxPool2d(kernel_size=9, stride=1, padding=4, dilation=1, ceil_mode=False)
        (2): MaxPool2d(kernel_size=13, stride=1, padding=6, dilation=1, ceil_mode=False)
      )
    )
    (panet): PANet(
      (feature_transform3): Conv(
        (conv): Sequential(
          (0): Conv2d(32, 16, kernel_size=(1, 1), stride=(1, 1), bias=False)
          (1): BatchNorm2d(16, eps=1e-05, momentum=0.1, affine=True, track_running_stats=True)
          (2): LeakyReLU(negative_slope=0.01)
        )
      )
      (feature_transform4): Conv(
        (conv): Sequential(
          (0): Conv2d(96, 48, kernel_size=(1, 1), stride=(1, 1), bias=False)
          (1): BatchNorm2d(48, eps=1e-05, momentum=0.1, affine=True, track_running_stats=True)
          (2): LeakyReLU(negative_slope=0.01)
        )
      )
      (resample5_4): Upsample(
        (upsample): Sequential(
          (0): Conv(
            (conv): Sequential(
              (0): Conv2d(640, 48, kernel_size=(1, 1), stride=(1, 1), bias=False)
              (1): BatchNorm2d(48, eps=1e-05, momentum=0.1, affine=True, track_running_stats=True)
              (2): LeakyReLU(negative_slope=0.01)
            )
          )
          (1): Upsample(scale_factor=2.0, mode=nearest)
        )
      )
      (resample4_3): Upsample(
        (upsample): Sequential(
          (0): Conv(
            (conv): Sequential(
              (0): Conv2d(48, 16, kernel_size=(1, 1), stride=(1, 1), bias=False)
              (1): BatchNorm2d(16, eps=1e-05, momentum=0.1, affine=True, track_running_stats=True)
              (2): LeakyReLU(negative_slope=0.01)
            )
          )
          (1): Upsample(scale_factor=2.0, mode=nearest)
        )
      )
      (resample3_4): Downsample(
        (downsample): Conv(
          (conv): Sequential(
            (0): Conv2d(16, 48, kernel_size=(3, 3), stride=(2, 2), padding=(1, 1), bias=False)
            (1): BatchNorm2d(48, eps=1e-05, momentum=0.1, affine=True, track_running_stats=True)
            (2): LeakyReLU(negative_slope=0.01)
          )
        )
      )
      (resample4_5): Downsample(
        (downsample): Conv(
          (conv): Sequential(
            (0): Conv2d(48, 640, kernel_size=(3, 3), stride=(2, 2), padding=(1, 1), bias=False)
            (1): BatchNorm2d(640, eps=1e-05, momentum=0.1, affine=True, track_running_stats=True)
            (2): LeakyReLU(negative_slope=0.01)
          )
        )
      )
      (downstream_conv5): Sequential(
        (0): Conv(
          (conv): Sequential(
            (0): Conv2d(2560, 640, kernel_size=(1, 1), stride=(1, 1), bias=False)
            (1): BatchNorm2d(640, eps=1e-05, momentum=0.1, affine=True, track_running_stats=True)
            (2): LeakyReLU(negative_slope=0.01)
          )
        )
        (1): Conv(
          (conv): Sequential(
            (0): Conv2d(640, 1280, kernel_size=(3, 3), stride=(1, 1), padding=(1, 1), bias=False)
            (1): BatchNorm2d(1280, eps=1e-05, momentum=0.1, affine=True, track_running_stats=True)
            (2): LeakyReLU(negative_slope=0.01)
          )
        )
        (2): Conv(
          (conv): Sequential(
            (0): Conv2d(1280, 640, kernel_size=(1, 1), stride=(1, 1), bias=False)
            (1): BatchNorm2d(640, eps=1e-05, momentum=0.1, affine=True, track_running_stats=True)
            (2): LeakyReLU(negative_slope=0.01)
          )
        )
      )
      (downstream_conv4): Sequential(
        (0): Conv(
          (conv): Sequential(
            (0): Conv2d(96, 48, kernel_size=(1, 1), stride=(1, 1), bias=False)
            (1): BatchNorm2d(48, eps=1e-05, momentum=0.1, affine=True, track_running_stats=True)
            (2): LeakyReLU(negative_slope=0.01)
          )
        )
        (1): Conv(
          (conv): Sequential(
            (0): Conv2d(48, 96, kernel_size=(3, 3), stride=(1, 1), padding=(1, 1), bias=False)
            (1): BatchNorm2d(96, eps=1e-05, momentum=0.1, affine=True, track_running_stats=True)
            (2): LeakyReLU(negative_slope=0.01)
          )
        )
        (2): Conv(
          (conv): Sequential(
            (0): Conv2d(96, 48, kernel_size=(1, 1), stride=(1, 1), bias=False)
            (1): BatchNorm2d(48, eps=1e-05, momentum=0.1, affine=True, track_running_stats=True)
            (2): LeakyReLU(negative_slope=0.01)
          )
        )
        (3): Conv(
          (conv): Sequential(
…
          (0): Conv2d(96, 48, kernel_size=(1, 1), stride=(1, 1), bias=False)
          (1): BatchNorm2d(48, eps=1e-05, momentum=0.1, affine=True, track_running_stats=True)
          (2): LeakyReLU(negative_slope=0.01)
        )
      )
      (resample5_4): Upsample(
        (upsample): Sequential(
          (0): Conv(
            (conv): Sequential(
              (0): Conv2d(640, 48, kernel_size=(1, 1), stride=(1, 1), bias=False)
              (1): BatchNorm2d(48, eps=1e-05, momentum=0.1, affine=True, track_running_stats=True)
              (2): LeakyReLU(negative_slope=0.01)
            )
          )
          (1): Upsample(scale_factor=2.0, mode=nearest)
        )
      )
      (resample4_3): Upsample(
        (upsample): Sequential(
          (0): Conv(
            (conv): Sequential(
              (0): Conv2d(48, 16, kernel_size=(1, 1), stride=(1, 1), bias=False)
              (1): BatchNorm2d(16, eps=1e-05, momentum=0.1, affine=True, track_running_stats=True)
              (2): LeakyReLU(negative_slope=0.01)
            )
          )
          (1): Upsample(scale_factor=2.0, mode=nearest)
        )
      )
      (resample3_4): Downsample(
        (downsample): Conv(
          (conv): Sequential(
            (0): Conv2d(16, 48, kernel_size=(3, 3), stride=(2, 2), padding=(1, 1), bias=False)
            (1): BatchNorm2d(48, eps=1e-05, momentum=0.1, affine=True, track_running_stats=True)
            (2): LeakyReLU(negative_slope=0.01)
          )
        )
      )
      (resample4_5): Downsample(
        (downsample): Conv(
          (conv): Sequential(
            (0): Conv2d(48, 640, kernel_size=(3, 3), stride=(2, 2), padding=(1, 1), bias=False)
            (1): BatchNorm2d(640, eps=1e-05, momentum=0.1, affine=True, track_running_stats=True)
            (2): LeakyReLU(negative_slope=0.01)
          )
        )
      )
      (downstream_conv5): Sequential(
        (0): Conv(
          (conv): Sequential(
            (0): Conv2d(2560, 640, kernel_size=(1, 1), stride=(1, 1), bias=False)
            (1): BatchNorm2d(640, eps=1e-05, momentum=0.1, affine=True, track_running_stats=True)
            (2): LeakyReLU(negative_slope=0.01)
          )
        )
        (1): Conv(
          (conv): Sequential(
            (0): Conv2d(640, 1280, kernel_size=(3, 3), stride=(1, 1), padding=(1, 1), bias=False)
            (1): BatchNorm2d(1280, eps=1e-05, momentum=0.1, affine=True, track_running_stats=True)
            (2): LeakyReLU(negative_slope=0.01)
          )
        )
        (2): Conv(
          (conv): Sequential(
            (0): Conv2d(1280, 640, kernel_size=(1, 1), stride=(1, 1), bias=False)
            (1): BatchNorm2d(640, eps=1e-05, momentum=0.1, affine=True, track_running_stats=True)
            (2): LeakyReLU(negative_slope=0.01)
          )
        )
      )
      (downstream_conv4): Sequential(
        (0): Conv(
          (conv): Sequential(
            (0): Conv2d(96, 48, kernel_size=(1, 1), stride=(1, 1), bias=False)
            (1): BatchNorm2d(48, eps=1e-05, momentum=0.1, affine=True, track_running_stats=True)
            (2): LeakyReLU(negative_slope=0.01)
          )
        )
        (1): Conv(
          (conv): Sequential(
            (0): Conv2d(48, 96, kernel_size=(3, 3), stride=(1, 1), padding=(1, 1), bias=False)
            (1): BatchNorm2d(96, eps=1e-05, momentum=0.1, affine=True, track_running_stats=True)
            (2): LeakyReLU(negative_slope=0.01)
          )
        )
        (2): Conv(
          (conv): Sequential(
            (0): Conv2d(96, 48, kernel_size=(1, 1), stride=(1, 1), bias=False)
            (1): BatchNorm2d(48, eps=1e-05, momentum=0.1, affine=True, track_running_stats=True)
            (2): LeakyReLU(negative_slope=0.01)
          )
        )
        (3): Conv(
          (conv): Sequential(
            (0): Conv2d(48, 96, kernel_size=(3, 3), stride=(1, 1), padding=(1, 1), bias=False)
            (1): BatchNorm2d(96, eps=1e-05, momentum=0.1, affine=True, track_running_stats=True)
            (2): LeakyReLU(negative_slope=0.01)
          )
        )
        (4): Conv(
          (conv): Sequential(
            (0): Conv2d(96, 48, kernel_size=(1, 1), stride=(1, 1), bias=False)
            (1): BatchNorm2d(48, eps=1e-05, momentum=0.1, affine=True, track_running_stats=True)
            (2): LeakyReLU(negative_slope=0.01)
          )
        )
      )
      (downstream_conv3): Sequential(
        (0): Conv(
          (conv): Sequential(
            (0): Conv2d(32, 16, kernel_size=(1, 1), stride=(1, 1), bias=False)
            (1): BatchNorm2d(16, eps=1e-05, momentum=0.1, affine=True, track_running_stats=True)
            (2): LeakyReLU(negative_slope=0.01)
          )
        )
        (1): Conv(
          (conv): Sequential(
            (0): Conv2d(16, 32, kernel_size=(3, 3), stride=(1, 1), padding=(1, 1), bias=False)
            (1): BatchNorm2d(32, eps=1e-05, momentum=0.1, affine=True, track_running_stats=True)
            (2): LeakyReLU(negative_slope=0.01)
          )
        )
        (2): Conv(
          (conv): Sequential(
            (0): Conv2d(32, 16, kernel_size=(1, 1), stride=(1, 1), bias=False)
            (1): BatchNorm2d(16, eps=1e-05, momentum=0.1, affine=True, track_running_stats=True)
            (2): LeakyReLU(negative_slope=0.01)
          )
        )
        (3): Conv(
          (conv): Sequential(
            (0): Conv2d(16, 32, kernel_size=(3, 3), stride=(1, 1), padding=(1, 1), bias=False)
            (1): BatchNorm2d(32, eps=1e-05, momentum=0.1, affine=True, track_running_stats=True)
            (2): LeakyReLU(negative_slope=0.01)
          )
        )
        (4): Conv(
          (conv): Sequential(
            (0): Conv2d(32, 16, kernel_size=(1, 1), stride=(1, 1), bias=False)
            (1): BatchNorm2d(16, eps=1e-05, momentum=0.1, affine=True, track_running_stats=True)
            (2): LeakyReLU(negative_slope=0.01)
          )
        )
      )
      (upstream_conv4): Sequential(
        (0): Conv(
          (conv): Sequential(
            (0): Conv2d(96, 48, kernel_size=(1, 1), stride=(1, 1), bias=False)
            (1): BatchNorm2d(48, eps=1e-05, momentum=0.1, affine=True, track_running_stats=True)
            (2): LeakyReLU(negative_slope=0.01)
          )
        )
        (1): Conv(
          (conv): Sequential(
            (0): Conv2d(48, 96, kernel_size=(3, 3), stride=(1, 1), padding=(1, 1), bias=False)
            (1): BatchNorm2d(96, eps=1e-05, momentum=0.1, affine=True, track_running_stats=True)
            (2): LeakyReLU(negative_slope=0.01)
          )
        )
        (2): Conv(
          (conv): Sequential(
            (0): Conv2d(96, 48, kernel_size=(1, 1), stride=(1, 1), bias=False)
            (1): BatchNorm2d(48, eps=1e-05, momentum=0.1, affine=True, track_running_stats=True)
            (2): LeakyReLU(negative_slope=0.01)
          )
        )
        (3): Conv(
          (conv): Sequential(
            (0): Conv2d(48, 96, kernel_size=(3, 3), stride=(1, 1), padding=(1, 1), bias=False)
            (1): BatchNorm2d(96, eps=1e-05, momentum=0.1, affine=True, track_running_stats=True)
            (2): LeakyReLU(negative_slope=0.01)
          )
        )
        (4): Conv(
          (conv): Sequential(
            (0): Conv2d(96, 48, kernel_size=(1, 1), stride=(1, 1), bias=False)
            (1): BatchNorm2d(48, eps=1e-05, momentum=0.1, affine=True, track_running_stats=True)
            (2): LeakyReLU(negative_slope=0.01)
          )
        )
      )
      (upstream_conv5): Sequential(
        (0): Conv(
          (conv): Sequential(
            (0): Conv2d(1280, 640, kernel_size=(1, 1), stride=(1, 1), bias=False)
            (1): BatchNorm2d(640, eps=1e-05, momentum=0.1, affine=True, track_running_stats=True)
            (2): LeakyReLU(negative_slope=0.01)
          )
        )
        (1): Conv(
          (conv): Sequential(
            (0): Conv2d(640, 1280, kernel_size=(3, 3), stride=(1, 1), padding=(1, 1), bias=False)
            (1): BatchNorm2d(1280, eps=1e-05, momentum=0.1, affine=True, track_running_stats=True)
            (2): LeakyReLU(negative_slope=0.01)
          )
        )
        (2): Conv(
          (conv): Sequential(
            (0): Conv2d(1280, 640, kernel_size=(1, 1), stride=(1, 1), bias=False)
            (1): BatchNorm2d(640, eps=1e-05, momentum=0.1, affine=True, track_running_stats=True)
            (2): LeakyReLU(negative_slope=0.01)
          )
        )
        (3): Conv(
          (conv): Sequential(
            (0): Conv2d(640, 1280, kernel_size=(3, 3), stride=(1, 1), padding=(1, 1), bias=False)
            (1): BatchNorm2d(1280, eps=1e-05, momentum=0.1, affine=True, track_running_stats=True)
            (2): LeakyReLU(negative_slope=0.01)
          )
        )
        (4): Conv(
          (conv): Sequential(
            (0): Conv2d(1280, 640, kernel_size=(1, 1), stride=(1, 1), bias=False)
            (1): BatchNorm2d(640, eps=1e-05, momentum=0.1, affine=True, track_running_stats=True)
            (2): LeakyReLU(negative_slope=0.01)
          )
        )
      )
    )
    (predict_net): PredictNet(
      (predict_conv): ModuleList(
        (0): Sequential(
          (0): Conv(
            (conv): Sequential(
              (0): Conv2d(16, 32, kernel_size=(3, 3), stride=(1, 1), padding=(1, 1), bias=False)
              (1): BatchNorm2d(32, eps=1e-05, momentum=0.1, affine=True, track_running_stats=True)
              (2): LeakyReLU(negative_slope=0.01)
            )
          )
          (1): Conv2d(32, 75, kernel_size=(1, 1), stride=(1, 1))
        )
        (1): Sequential(
          (0): Conv(
            (conv): Sequential(
              (0): Conv2d(48, 96, kernel_size=(3, 3), stride=(1, 1), padding=(1, 1), bias=False)
              (1): BatchNorm2d(96, eps=1e-05, momentum=0.1, affine=True, track_running_stats=True)
              (2): LeakyReLU(negative_slope=0.01)
            )
          )
          (1): Conv2d(96, 75, kernel_size=(1, 1), stride=(1, 1))
        )
        (2): Sequential(
          (0): Conv(
            (conv): Sequential(
              (0): Conv2d(640, 1280, kernel_size=(3, 3), stride=(1, 1), padding=(1, 1), bias=False)
              (1): BatchNorm2d(1280, eps=1e-05, momentum=0.1, affine=True, track_running_stats=True)
              (2): LeakyReLU(negative_slope=0.01)
            )
          )
          (1): Conv2d(1280, 75, kernel_size=(1, 1), stride=(1, 1))
        )
      )
    )
  )
  (_Build_Model__head_s): Yolo_head()
  (_Build_Model__head_m): Yolo_head()
  (_Build_Model__head_l): Yolo_head()
) 
[2021-06-02 10:47:52,589]-[main.py line:179]:Train datasets number is : 1 
[2021-06-02 10:47:52,589]-[main.py line:188]:        =======  start  training   ======      
[2021-06-02 10:47:54,168]-[main.py line:320]:=====Training Finished.   best_test_mAP:0.000%==== 
[2021-06-04 10:16:49,779]-[main.py line:174]:Training start,img size is: 416,batchsize is: 1,work number is 0 
[2021-06-04 10:16:49,801]-[main.py line:177]:Build_Model(
  (_Build_Model__yolov4): YOLOv4(
    (backbone): MobilenetV2(
      (_MobilenetV2__submodule): _MobileNetV2(
        (features): Sequential(
          (0): Sequential(
            (0): Conv2d(3, 32, kernel_size=(3, 3), stride=(2, 2), padding=(1, 1), bias=False)
            (1): BatchNorm2d(32, eps=1e-05, momentum=0.1, affine=True, track_running_stats=True)
            (2): ReLU6(inplace=True)
          )
          (1): InvertedResidual(
            (conv): Sequential(
              (0): Conv2d(32, 32, kernel_size=(3, 3), stride=(1, 1), padding=(1, 1), groups=32, bias=False)
              (1): BatchNorm2d(32, eps=1e-05, momentum=0.1, affine=True, track_running_stats=True)
              (2): ReLU6(inplace=True)
              (3): Conv2d(32, 16, kernel_size=(1, 1), stride=(1, 1), bias=False)
              (4): BatchNorm2d(16, eps=1e-05, momentum=0.1, affine=True, track_running_stats=True)
            )
          )
          (2): InvertedResidual(
            (conv): Sequential(
              (0): Conv2d(16, 96, kernel_size=(1, 1), stride=(1, 1), bias=False)
              (1): BatchNorm2d(96, eps=1e-05, momentum=0.1, affine=True, track_running_stats=True)
              (2): ReLU6(inplace=True)
              (3): Conv2d(96, 96, kernel_size=(3, 3), stride=(2, 2), padding=(1, 1), groups=96, bias=False)
              (4): BatchNorm2d(96, eps=1e-05, momentum=0.1, affine=True, track_running_stats=True)
              (5): ReLU6(inplace=True)
              (6): Conv2d(96, 24, kernel_size=(1, 1), stride=(1, 1), bias=False)
              (7): BatchNorm2d(24, eps=1e-05, momentum=0.1, affine=True, track_running_stats=True)
            )
          )
          (3): InvertedResidual(
            (conv): Sequential(
              (0): Conv2d(24, 144, kernel_size=(1, 1), stride=(1, 1), bias=False)
              (1): BatchNorm2d(144, eps=1e-05, momentum=0.1, affine=True, track_running_stats=True)
              (2): ReLU6(inplace=True)
              (3): Conv2d(144, 144, kernel_size=(3, 3), stride=(1, 1), padding=(1, 1), groups=144, bias=False)
              (4): BatchNorm2d(144, eps=1e-05, momentum=0.1, affine=True, track_running_stats=True)
              (5): ReLU6(inplace=True)
              (6): Conv2d(144, 24, kernel_size=(1, 1), stride=(1, 1), bias=False)
              (7): BatchNorm2d(24, eps=1e-05, momentum=0.1, affine=True, track_running_stats=True)
            )
          )
          (4): InvertedResidual(
            (conv): Sequential(
              (0): Conv2d(24, 144, kernel_size=(1, 1), stride=(1, 1), bias=False)
              (1): BatchNorm2d(144, eps=1e-05, momentum=0.1, affine=True, track_running_stats=True)
              (2): ReLU6(inplace=True)
              (3): Conv2d(144, 144, kernel_size=(3, 3), stride=(2, 2), padding=(1, 1), groups=144, bias=False)
              (4): BatchNorm2d(144, eps=1e-05, momentum=0.1, affine=True, track_running_stats=True)
              (5): ReLU6(inplace=True)
              (6): Conv2d(144, 32, kernel_size=(1, 1), stride=(1, 1), bias=False)
              (7): BatchNorm2d(32, eps=1e-05, momentum=0.1, affine=True, track_running_stats=True)
            )
          )
          (5): InvertedResidual(
            (conv): Sequential(
              (0): Conv2d(32, 192, kernel_size=(1, 1), stride=(1, 1), bias=False)
              (1): BatchNorm2d(192, eps=1e-05, momentum=0.1, affine=True, track_running_stats=True)
              (2): ReLU6(inplace=True)
              (3): Conv2d(192, 192, kernel_size=(3, 3), stride=(1, 1), padding=(1, 1), groups=192, bias=False)
              (4): BatchNorm2d(192, eps=1e-05, momentum=0.1, affine=True, track_running_stats=True)
              (5): ReLU6(inplace=True)
              (6): Conv2d(192, 32, kernel_size=(1, 1), stride=(1, 1), bias=False)
              (7): BatchNorm2d(32, eps=1e-05, momentum=0.1, affine=True, track_running_stats=True)
            )
          )
          (6): InvertedResidual(
            (conv): Sequential(
              (0): Conv2d(32, 192, kernel_size=(1, 1), stride=(1, 1), bias=False)
              (1): BatchNorm2d(192, eps=1e-05, momentum=0.1, affine=True, track_running_stats=True)
              (2): ReLU6(inplace=True)
              (3): Conv2d(192, 192, kernel_size=(3, 3), stride=(1, 1), padding=(1, 1), groups=192, bias=False)
              (4): BatchNorm2d(192, eps=1e-05, momentum=0.1, affine=True, track_running_stats=True)
              (5): ReLU6(inplace=True)
              (6): Conv2d(192, 32, kernel_size=(1, 1), stride=(1, 1), bias=False)
              (7): BatchNorm2d(32, eps=1e-05, momentum=0.1, affine=True, track_running_stats=True)
            )
          )
          (7): InvertedResidual(
            (conv): Sequential(
              (0): Conv2d(32, 192, kernel_size=(1, 1), stride=(1, 1), bias=False)
              (1): BatchNorm2d(192, eps=1e-05, momentum=0.1, affine=True, track_running_stats=True)
              (2): ReLU6(inplace=True)
              (3): Conv2d(192, 192, kernel_size=(3, 3), stride=(2, 2), padding=(1, 1), groups=192, bias=False)
              (4): BatchNorm2d(192, eps=1e-05, momentum=0.1, affine=True, track_running_stats=True)
              (5): ReLU6(inplace=True)
              (6): Conv2d(192, 64, kernel_size=(1, 1), stride=(1, 1), bias=False)
              (7): BatchNorm2d(64, eps=1e-05, momentum=0.1, affine=True, track_running_stats=True)
            )
          )
          (8): InvertedResidual(
            (conv): Sequential(
              (0): Conv2d(64, 384, kernel_size=(1, 1), stride=(1, 1), bias=False)
              (1): BatchNorm2d(384, eps=1e-05, momentum=0.1, affine=True, track_running_stats=True)
              (2): ReLU6(inplace=True)
              (3): Conv2d(384, 384, kernel_size=(3, 3), stride=(1, 1), padding=(1, 1), groups=384, bias=False)
              (4): BatchNorm2d(384, eps=1e-05, momentum=0.1, affine=True, track_running_stats=True)
              (5): ReLU6(inplace=True)
              (6): Conv2d(384, 64, kernel_size=(1, 1), stride=(1, 1), bias=False)
              (7): BatchNorm2d(64, eps=1e-05, momentum=0.1, affine=True, track_running_stats=True)
            )
          )
          (9): InvertedResidual(
            (conv): Sequential(
              (0): Conv2d(64, 384, kernel_size=(1, 1), stride=(1, 1), bias=False)
              (1): BatchNorm2d(384, eps=1e-05, momentum=0.1, affine=True, track_running_stats=True)
              (2): ReLU6(inplace=True)
              (3): Conv2d(384, 384, kernel_size=(3, 3), stride=(1, 1), padding=(1, 1), groups=384, bias=False)
              (4): BatchNorm2d(384, eps=1e-05, momentum=0.1, affine=True, track_running_stats=True)
              (5): ReLU6(inplace=True)
              (6): Conv2d(384, 64, kernel_size=(1, 1), stride=(1, 1), bias=False)
              (7): BatchNorm2d(64, eps=1e-05, momentum=0.1, affine=True, track_running_stats=True)
            )
          )
          (10): InvertedResidual(
            (conv): Sequential(
              (0): Conv2d(64, 384, kernel_size=(1, 1), stride=(1, 1), bias=False)
              (1): BatchNorm2d(384, eps=1e-05, momentum=0.1, affine=True, track_running_stats=True)
              (2): ReLU6(inplace=True)
              (3): Conv2d(384, 384, kernel_size=(3, 3), stride=(1, 1), padding=(1, 1), groups=384, bias=False)
              (4): BatchNorm2d(384, eps=1e-05, momentum=0.1, affine=True, track_running_stats=True)
              (5): ReLU6(inplace=True)
              (6): Conv2d(384, 64, kernel_size=(1, 1), stride=(1, 1), bias=False)
              (7): BatchNorm2d(64, eps=1e-05, momentum=0.1, affine=True, track_running_stats=True)
            )
          )
          (11): InvertedResidual(
            (conv): Sequential(
              (0): Conv2d(64, 384, kernel_size=(1, 1), stride=(1, 1), bias=False)
              (1): BatchNorm2d(384, eps=1e-05, momentum=0.1, affine=True, track_running_stats=True)
              (2): ReLU6(inplace=True)
              (3): Conv2d(384, 384, kernel_size=(3, 3), stride=(1, 1), padding=(1, 1), groups=384, bias=False)
              (4): BatchNorm2d(384, eps=1e-05, momentum=0.1, affine=True, track_running_stats=True)
              (5): ReLU6(inplace=True)
              (6): Conv2d(384, 96, kernel_size=(1, 1), stride=(1, 1), bias=False)
              (7): BatchNorm2d(96, eps=1e-05, momentum=0.1, affine=True, track_running_stats=True)
            )
          )
          (12): InvertedResidual(
            (conv): Sequential(
              (0): Conv2d(96, 576, kernel_size=(1, 1), stride=(1, 1), bias=False)
              (1): BatchNorm2d(576, eps=1e-05, momentum=0.1, affine=True, track_running_stats=True)
              (2): ReLU6(inplace=True)
              (3): Conv2d(576, 576, kernel_size=(3, 3), stride=(1, 1), padding=(1, 1), groups=576, bias=False)
              (4): BatchNorm2d(576, eps=1e-05, momentum=0.1, affine=True, track_running_stats=True)
              (5): ReLU6(inplace=True)
              (6): Conv2d(576, 96, kernel_size=(1, 1), stride=(1, 1), bias=False)
              (7): BatchNorm2d(96, eps=1e-05, momentum=0.1, affine=True, track_running_stats=True)
            )
          )
          (13): InvertedResidual(
            (conv): Sequential(
              (0): Conv2d(96, 576, kernel_size=(1, 1), stride=(1, 1), bias=False)
              (1): BatchNorm2d(576, eps=1e-05, momentum=0.1, affine=True, track_running_stats=True)
              (2): ReLU6(inplace=True)
              (3): Conv2d(576, 576, kernel_size=(3, 3), stride=(1, 1), padding=(1, 1), groups=576, bias=False)
              (4): BatchNorm2d(576, eps=1e-05, momentum=0.1, affine=True, track_running_stats=True)
              (5): ReLU6(inplace=True)
              (6): Conv2d(576, 96, kernel_size=(1, 1), stride=(1, 1), bias=False)
              (7): BatchNorm2d(96, eps=1e-05, momentum=0.1, affine=True, track_running_stats=True)
            )
          )
          (14): InvertedResidual(
            (conv): Sequential(
              (0): Conv2d(96, 576, kernel_size=(1, 1), stride=(1, 1), bias=False)
              (1): BatchNorm2d(576, eps=1e-05, momentum=0.1, affine=True, track_running_stats=True)
              (2): ReLU6(inplace=True)
              (3): Conv2d(576, 576, kernel_size=(3, 3), stride=(2, 2), padding=(1, 1), groups=576, bias=False)
              (4): BatchNorm2d(576, eps=1e-05, momentum=0.1, affine=True, track_running_stats=True)
              (5): ReLU6(inplace=True)
              (6): Conv2d(576, 160, kernel_size=(1, 1), stride=(1, 1), bias=False)
              (7): BatchNorm2d(160, eps=1e-05, momentum=0.1, affine=True, track_running_stats=True)
            )
          )
          (15): InvertedResidual(
            (conv): Sequential(
              (0): Conv2d(160, 960, kernel_size=(1, 1), stride=(1, 1), bias=False)
              (1): BatchNorm2d(960, eps=1e-05, momentum=0.1, affine=True, track_running_stats=True)
              (2): ReLU6(inplace=True)
              (3): Conv2d(960, 960, kernel_size=(3, 3), stride=(1, 1), padding=(1, 1), groups=960, bias=False)
              (4): BatchNorm2d(960, eps=1e-05, momentum=0.1, affine=True, track_running_stats=True)
              (5): ReLU6(inplace=True)
              (6): Conv2d(960, 160, kernel_size=(1, 1), stride=(1, 1), bias=False)
              (7): BatchNorm2d(160, eps=1e-05, momentum=0.1, affine=True, track_running_stats=True)
            )
          )
          (16): InvertedResidual(
            (conv): Sequential(
              (0): Conv2d(160, 960, kernel_size=(1, 1), stride=(1, 1), bias=False)
              (1): BatchNorm2d(960, eps=1e-05, momentum=0.1, affine=True, track_running_stats=True)
              (2): ReLU6(inplace=True)
              (3): Conv2d(960, 960, kernel_size=(3, 3), stride=(1, 1), padding=(1, 1), groups=960, bias=False)
              (4): BatchNorm2d(960, eps=1e-05, momentum=0.1, affine=True, track_running_stats=True)
              (5): ReLU6(inplace=True)
              (6): Conv2d(960, 160, kernel_size=(1, 1), stride=(1, 1), bias=False)
              (7): BatchNorm2d(160, eps=1e-05, momentum=0.1, affine=True, track_running_stats=True)
            )
          )
          (17): InvertedResidual(
            (conv): Sequential(
              (0): Conv2d(160, 960, kernel_size=(1, 1), stride=(1, 1), bias=False)
              (1): BatchNorm2d(960, eps=1e-05, momentum=0.1, affine=True, track_running_stats=True)
              (2): ReLU6(inplace=True)
              (3): Conv2d(960, 960, kernel_size=(3, 3), stride=(1, 1), padding=(1, 1), groups=960, bias=False)
              (4): BatchNorm2d(960, eps=1e-05, momentum=0.1, affine=True, track_running_stats=True)
              (5): ReLU6(inplace=True)
              (6): Conv2d(960, 320, kernel_size=(1, 1), stride=(1, 1), bias=False)
              (7): BatchNorm2d(320, eps=1e-05, momentum=0.1, affine=True, track_running_stats=True)
            )
          )
        )
        (conv): Sequential(
          (0): Conv2d(320, 1280, kernel_size=(1, 1), stride=(1, 1), bias=False)
          (1): BatchNorm2d(1280, eps=1e-05, momentum=0.1, affine=True, track_running_stats=True)
          (2): ReLU6(inplace=True)
        )
      )
      (_MobilenetV2__extractor): FeatureExtractor(
        (submodule): _MobileNetV2(
          (features): Sequential(
            (0): Sequential(
              (0): Conv2d(3, 32, kernel_size=(3, 3), stride=(2, 2), padding=(1, 1), bias=False)
              (1): BatchNorm2d(32, eps=1e-05, momentum=0.1, affine=True, track_running_stats=True)
              (2): ReLU6(inplace=True)
            )
            (1): InvertedResidual(
              (conv): Sequential(
                (0): Conv2d(32, 32, kernel_size=(3, 3), stride=(1, 1), padding=(1, 1), groups=32, bias=False)
                (1): BatchNorm2d(32, eps=1e-05, momentum=0.1, affine=True, track_running_stats=True)
                (2): ReLU6(inplace=True)
                (3): Conv2d(32, 16, kernel_size=(1, 1), stride=(1, 1), bias=False)
                (4): BatchNorm2d(16, eps=1e-05, momentum=0.1, affine=True, track_running_stats=True)
              )
            )
            (2): InvertedResidual(
              (conv): Sequential(
                (0): Conv2d(16, 96, kernel_size=(1, 1), stride=(1, 1), bias=False)
                (1): BatchNorm2d(96, eps=1e-05, momentum=0.1, affine=True, track_running_stats=True)
                (2): ReLU6(inplace=True)
                (3): Conv2d(96, 96, kernel_size=(3, 3), stride=(2, 2), padding=(1, 1), groups=96, bias=False)
                (4): BatchNorm2d(96, eps=1e-05, momentum=0.1, affine=True, track_running_stats=True)
                (5): ReLU6(inplace=True)
                (6): Conv2d(96, 24, kernel_size=(1, 1), stride=(1, 1), bias=False)
                (7): BatchNorm2d(24, eps=1e-05, momentum=0.1, affine=True, track_running_stats=True)
              )
            )
            (3): InvertedResidual(
              (conv): Sequential(
                (0): Conv2d(24, 144, kernel_size=(1, 1), stride=(1, 1), bias=False)
                (1): BatchNorm2d(144, eps=1e-05, momentum=0.1, affine=True, track_running_stats=True)
                (2): ReLU6(inplace=True)
                (3): Conv2d(144, 144, kernel_size=(3, 3), stride=(1, 1), padding=(1, 1), groups=144, bias=False)
                (4): BatchNorm2d(144, eps=1e-05, momentum=0.1, affine=True, track_running_stats=True)
                (5): ReLU6(inplace=True)
                (6): Conv2d(144, 24, kernel_size=(1, 1), stride=(1, 1), bias=False)
                (7): BatchNorm2d(24, eps=1e-05, momentum=0.1, affine=True, track_running_stats=True)
              )
            )
            (4): InvertedResidual(
              (conv): Sequential(
                (0): Conv2d(24, 144, kernel_size=(1, 1), stride=(1, 1), bias=False)
                (1): BatchNorm2d(144, eps=1e-05, momentum=0.1, affine=True, track_running_stats=True)
                (2): ReLU6(inplace=True)
                (3): Conv2d(144, 144, kernel_size=(3, 3), stride=(2, 2), padding=(1, 1), groups=144, bias=False)
                (4): BatchNorm2d(144, eps=1e-05, momentum=0.1, affine=True, track_running_stats=True)
                (5): ReLU6(inplace=True)
                (6): Conv2d(144, 32, kernel_size=(1, 1), stride=(1, 1), bias=False)
                (7): BatchNorm2d(32, eps=1e-05, momentum=0.1, affine=True, track_running_stats=True)
              )
            )
            (5): InvertedResidual(
              (conv): Sequential(
                (0): Conv2d(32, 192, kernel_size=(1, 1), stride=(1, 1), bias=False)
                (1): BatchNorm2d(192, eps=1e-05, momentum=0.1, affine=True, track_running_stats=True)
                (2): ReLU6(inplace=True)
                (3): Conv2d(192, 192, kernel_size=(3, 3), stride=(1, 1), padding=(1, 1), groups=192, bias=False)
                (4): BatchNorm2d(192, eps=1e-05, momentum=0.1, affine=True, track_running_stats=True)
                (5): ReLU6(inplace=True)
                (6): Conv2d(192, 32, kernel_size=(1, 1), stride=(1, 1), bias=False)
                (7): BatchNorm2d(32, eps=1e-05, momentum=0.1, affine=True, track_running_stats=True)
              )
            )
            (6): InvertedResidual(
              (conv): Sequential(
                (0): Conv2d(32, 192, kernel_size=(1, 1), stride=(1, 1), bias=False)
                (1): BatchNorm2d(192, eps=1e-05, momentum=0.1, affine=True, track_running_stats=True)
                (2): ReLU6(inplace=True)
                (3): Conv2d(192, 192, kernel_size=(3, 3), stride=(1, 1), padding=(1, 1), groups=192, bias=False)
                (4): BatchNorm2d(192, eps=1e-05, momentum=0.1, affine=True, track_running_stats=True)
                (5): ReLU6(inplace=True)
                (6): Conv2d(192, 32, kernel_size=(1, 1), stride=(1, 1), bias=False)
                (7): BatchNorm2d(32, eps=1e-05, momentum=0.1, affine=True, track_running_stats=True)
              )
            )
            (7): InvertedResidual(
              (conv): Sequential(
                (0): Conv2d(32, 192, kernel_size=(1, 1), stride=(1, 1), bias=False)
                (1): BatchNorm2d(192, eps=1e-05, momentum=0.1, affine=True, track_running_stats=True)
                (2): ReLU6(inplace=True)
                (3): Conv2d(192, 192, kernel_size=(3, 3), stride=(2, 2), padding=(1, 1), groups=192, bias=False)
                (4): BatchNorm2d(192, eps=1e-05, momentum=0.1, affine=True, track_running_stats=True)
                (5): ReLU6(inplace=True)
                (6): Conv2d(192, 64, kernel_size=(1, 1), stride=(1, 1), bias=False)
                (7): BatchNorm2d(64, eps=1e-05, momentum=0.1, affine=True, track_running_stats=True)
              )
            )
            (8): InvertedResidual(
              (conv): Sequential(
                (0): Conv2d(64, 384, kernel_size=(1, 1), stride=(1, 1), bias=False)
                (1): BatchNorm2d(384, eps=1e-05, momentum=0.1, affine=True, track_running_stats=True)
                (2): ReLU6(inplace=True)
                (3): Conv2d(384, 384, kernel_size=(3, 3), stride=(1, 1), padding=(1, 1), groups=384, bias=False)
                (4): BatchNorm2d(384, eps=1e-05, momentum=0.1, affine=True, track_running_stats=True)
                (5): ReLU6(inplace=True)
                (6): Conv2d(384, 64, kernel_size=(1, 1), stride=(1, 1), bias=False)
                (7): BatchNorm2d(64, eps=1e-05, momentum=0.1, affine=True, track_running_stats=True)
              )
            )
            (9): InvertedResidual(
              (conv): Sequential(
                (0): Conv2d(64, 384, kernel_size=(1, 1), stride=(1, 1), bias=False)
                (1): BatchNorm2d(384, eps=1e-05, momentum=0.1, affine=True, track_running_stats=True)
                (2): ReLU6(inplace=True)
                (3): Conv2d(384, 384, kernel_size=(3, 3), stride=(1, 1), padding=(1, 1), groups=384, bias=False)
                (4): BatchNorm2d(384, eps=1e-05, momentum=0.1, affine=True, track_running_stats=True)
                (5): ReLU6(inplace=True)
                (6): Conv2d(384, 64, kernel_size=(1, 1), stride=(1, 1), bias=False)
                (7): BatchNorm2d(64, eps=1e-05, momentum=0.1, affine=True, track_running_stats=True)
              )
            )
            (10): InvertedResidual(
              (conv): Sequential(
                (0): Conv2d(64, 384, kernel_size=(1, 1), stride=(1, 1), bias=False)
                (1): BatchNorm2d(384, eps=1e-05, momentum=0.1, affine=True, track_running_stats=True)
                (2): ReLU6(inplace=True)
                (3): Conv2d(384, 384, kernel_size=(3, 3), stride=(1, 1), padding=(1, 1), groups=384, bias=False)
                (4): BatchNorm2d(384, eps=1e-05, momentum=0.1, affine=True, track_running_stats=True)
                (5): ReLU6(inplace=True)
                (6): Conv2d(384, 64, kernel_size=(1, 1), stride=(1, 1), bias=False)
                (7): BatchNorm2d(64, eps=1e-05, momentum=0.1, affine=True, track_running_stats=True)
              )
            )
            (11): InvertedResidual(
              (conv): Sequential(
                (0): Conv2d(64, 384, kernel_size=(1, 1), stride=(1, 1), bias=False)
                (1): BatchNorm2d(384, eps=1e-05, momentum=0.1, affine=True, track_running_stats=True)
                (2): ReLU6(inplace=True)
                (3): Conv2d(384, 384, kernel_size=(3, 3), stride=(1, 1), padding=(1, 1), groups=384, bias=False)
                (4): BatchNorm2d(384, eps=1e-05, momentum=0.1, affine=True, track_running_stats=True)
                (5): ReLU6(inplace=True)
                (6): Conv2d(384, 96, kernel_size=(1, 1), stride=(1, 1), bias=False)
                (7): BatchNorm2d(96, eps=1e-05, momentum=0.1, affine=True, track_running_stats=True)
              )
            )
            (12): InvertedResidual(
              (conv): Sequential(
                (0): Conv2d(96, 576, kernel_size=(1, 1), stride=(1, 1), bias=False)
                (1): BatchNorm2d(576, eps=1e-05, momentum=0.1, affine=True, track_running_stats=True)
                (2): ReLU6(inplace=True)
                (3): Conv2d(576, 576, kernel_size=(3, 3), stride=(1, 1), padding=(1, 1), groups=576, bias=False)
                (4): BatchNorm2d(576, eps=1e-05, momentum=0.1, affine=True, track_running_stats=True)
                (5): ReLU6(inplace=True)
                (6): Conv2d(576, 96, kernel_size=(1, 1), stride=(1, 1), bias=False)
                (7): BatchNorm2d(96, eps=1e-05, momentum=0.1, affine=True, track_running_stats=True)
              )
            )
            (13): InvertedResidual(
              (conv): Sequential(
                (0): Conv2d(96, 576, kernel_size=(1, 1), stride=(1, 1), bias=False)
                (1): BatchNorm2d(576, eps=1e-05, momentum=0.1, affine=True, track_running_stats=True)
                (2): ReLU6(inplace=True)
                (3): Conv2d(576, 576, kernel_size=(3, 3), stride=(1, 1), padding=(1, 1), groups=576, bias=False)
                (4): BatchNorm2d(576, eps=1e-05, momentum=0.1, affine=True, track_running_stats=True)
                (5): ReLU6(inplace=True)
                (6): Conv2d(576, 96, kernel_size=(1, 1), stride=(1, 1), bias=False)
                (7): BatchNorm2d(96, eps=1e-05, momentum=0.1, affine=True, track_running_stats=True)
              )
            )
            (14): InvertedResidual(
              (conv): Sequential(
                (0): Conv2d(96, 576, kernel_size=(1, 1), stride=(1, 1), bias=False)
                (1): BatchNorm2d(576, eps=1e-05, momentum=0.1, affine=True, track_running_stats=True)
                (2): ReLU6(inplace=True)
                (3): Conv2d(576, 576, kernel_size=(3, 3), stride=(2, 2), padding=(1, 1), groups=576, bias=False)
                (4): BatchNorm2d(576, eps=1e-05, momentum=0.1, affine=True, track_running_stats=True)
                (5): ReLU6(inplace=True)
                (6): Conv2d(576, 160, kernel_size=(1, 1), stride=(1, 1), bias=False)
                (7): BatchNorm2d(160, eps=1e-05, momentum=0.1, affine=True, track_running_stats=True)
              )
            )
            (15): InvertedResidual(
              (conv): Sequential(
                (0): Conv2d(160, 960, kernel_size=(1, 1), stride=(1, 1), bias=False)
                (1): BatchNorm2d(960, eps=1e-05, momentum=0.1, affine=True, track_running_stats=True)
                (2): ReLU6(inplace=True)
                (3): Conv2d(960, 960, kernel_size=(3, 3), stride=(1, 1), padding=(1, 1), groups=960, bias=False)
                (4): BatchNorm2d(960, eps=1e-05, momentum=0.1, affine=True, track_running_stats=True)
                (5): ReLU6(inplace=True)
                (6): Conv2d(960, 160, kernel_size=(1, 1), stride=(1, 1), bias=False)
                (7): BatchNorm2d(160, eps=1e-05, momentum=0.1, affine=True, track_running_stats=True)
              )
            )
            (16): InvertedResidual(
              (conv): Sequential(
                (0): Conv2d(160, 960, kernel_size=(1, 1), stride=(1, 1), bias=False)
                (1): BatchNorm2d(960, eps=1e-05, momentum=0.1, affine=True, track_running_stats=True)
                (2): ReLU6(inplace=True)
                (3): Conv2d(960, 960, kernel_size=(3, 3), stride=(1, 1), padding=(1, 1), groups=960, bias=False)
                (4): BatchNorm2d(960, eps=1e-05, momentum=0.1, affine=True, track_running_stats=True)
                (5): ReLU6(inplace=True)
                (6): Conv2d(960, 160, kernel_size=(1, 1), stride=(1, 1), bias=False)
                (7): BatchNorm2d(160, eps=1e-05, momentum=0.1, affine=True, track_running_stats=True)
              )
            )
            (17): InvertedResidual(
              (conv): Sequential(
                (0): Conv2d(160, 960, kernel_size=(1, 1), stride=(1, 1), bias=False)
                (1): BatchNorm2d(960, eps=1e-05, momentum=0.1, affine=True, track_running_stats=True)
                (2): ReLU6(inplace=True)
                (3): Conv2d(960, 960, kernel_size=(3, 3), stride=(1, 1), padding=(1, 1), groups=960, bias=False)
                (4): BatchNorm2d(960, eps=1e-05, momentum=0.1, affine=True, track_running_stats=True)
                (5): ReLU6(inplace=True)
                (6): Conv2d(960, 320, kernel_size=(1, 1), stride=(1, 1), bias=False)
                (7): BatchNorm2d(320, eps=1e-05, momentum=0.1, affine=True, track_running_stats=True)
              )
            )
          )
          (conv): Sequential(
            (0): Conv2d(320, 1280, kernel_size=(1, 1), stride=(1, 1), bias=False)
            (1): BatchNorm2d(1280, eps=1e-05, momentum=0.1, affine=True, track_running_stats=True)
            (2): ReLU6(inplace=True)
          )
        )
      )
    )
    (spp): SpatialPyramidPooling(
      (head_conv): Sequential(
        (0): Conv(
          (conv): Sequential(
            (0): Conv2d(1280, 640, kernel_size=(1, 1), stride=(1, 1), bias=False)
            (1): BatchNorm2d(640, eps=1e-05, momentum=0.1, affine=True, track_running_stats=True)
            (2): LeakyReLU(negative_slope=0.01)
          )
        )
        (1): Conv(
          (conv): Sequential(
            (0): Conv2d(640, 1280, kernel_size=(3, 3), stride=(1, 1), padding=(1, 1), bias=False)
            (1): BatchNorm2d(1280, eps=1e-05, momentum=0.1, affine=True, track_running_stats=True)
            (2): LeakyReLU(negative_slope=0.01)
          )
        )
        (2): Conv(
          (conv): Sequential(
            (0): Conv2d(1280, 640, kernel_size=(1, 1), stride=(1, 1), bias=False)
            (1): BatchNorm2d(640, eps=1e-05, momentum=0.1, affine=True, track_running_stats=True)
            (2): LeakyReLU(negative_slope=0.01)
          )
        )
      )
      (maxpools): ModuleList(
        (0): MaxPool2d(kernel_size=5, stride=1, padding=2, dilation=1, ceil_mode=False)
        (1): MaxPool2d(kernel_size=9, stride=1, padding=4, dilation=1, ceil_mode=False)
        (2): MaxPool2d(kernel_size=13, stride=1, padding=6, dilation=1, ceil_mode=False)
      )
    )
    (panet): PANet(
      (feature_transform3): Conv(
        (conv): Sequential(
          (0): Conv2d(32, 16, kernel_size=(1, 1), stride=(1, 1), bias=False)
          (1): BatchNorm2d(16, eps=1e-05, momentum=0.1, affine=True, track_running_stats=True)
          (2): LeakyReLU(negative_slope=0.01)
        )
      )
      (feature_transform4): Conv(
        (conv): Sequential(
          (0): Conv2d(96, 48, kernel_size=(1, 1), stride=(1, 1), bias=False)
          (1): BatchNorm2d(48, eps=1e-05, momentum=0.1, affine=True, track_running_stats=True)
          (2): LeakyReLU(negative_slope=0.01)
        )
      )
      (resample5_4): Upsample(
        (upsample): Sequential(
          (0): Conv(
            (conv): Sequential(
              (0): Conv2d(640, 48, kernel_size=(1, 1), stride=(1, 1), bias=False)
              (1): BatchNorm2d(48, eps=1e-05, momentum=0.1, affine=True, track_running_stats=True)
              (2): LeakyReLU(negative_slope=0.01)
            )
          )
          (1): Upsample(scale_factor=2.0, mode=nearest)
        )
      )
      (resample4_3): Upsample(
        (upsample): Sequential(
          (0): Conv(
            (conv): Sequential(
              (0): Conv2d(48, 16, kernel_size=(1, 1), stride=(1, 1), bias=False)
              (1): BatchNorm2d(16, eps=1e-05, momentum=0.1, affine=True, track_running_stats=True)
              (2): LeakyReLU(negative_slope=0.01)
            )
          )
          (1): Upsample(scale_factor=2.0, mode=nearest)
        )
      )
      (resample3_4): Downsample(
        (downsample): Conv(
          (conv): Sequential(
            (0): Conv2d(16, 48, kernel_size=(3, 3), stride=(2, 2), padding=(1, 1), bias=False)
            (1): BatchNorm2d(48, eps=1e-05, momentum=0.1, affine=True, track_running_stats=True)
            (2): LeakyReLU(negative_slope=0.01)
          )
        )
      )
      (resample4_5): Downsample(
        (downsample): Conv(
          (conv): Sequential(
            (0): Conv2d(48, 640, kernel_size=(3, 3), stride=(2, 2), padding=(1, 1), bias=False)
            (1): BatchNorm2d(640, eps=1e-05, momentum=0.1, affine=True, track_running_stats=True)
            (2): LeakyReLU(negative_slope=0.01)
          )
        )
      )
      (downstream_conv5): Sequential(
        (0): Conv(
          (conv): Sequential(
            (0): Conv2d(2560, 640, kernel_size=(1, 1), stride=(1, 1), bias=False)
            (1): BatchNorm2d(640, eps=1e-05, momentum=0.1, affine=True, track_running_stats=True)
            (2): LeakyReLU(negative_slope=0.01)
          )
        )
        (1): Conv(
          (conv): Sequential(
            (0): Conv2d(640, 1280, kernel_size=(3, 3), stride=(1, 1), padding=(1, 1), bias=False)
            (1): BatchNorm2d(1280, eps=1e-05, momentum=0.1, affine=True, track_running_stats=True)
            (2): LeakyReLU(negative_slope=0.01)
          )
        )
        (2): Conv(
          (conv): Sequential(
            (0): Conv2d(1280, 640, kernel_size=(1, 1), stride=(1, 1), bias=False)
            (1): BatchNorm2d(640, eps=1e-05, momentum=0.1, affine=True, track_running_stats=True)
            (2): LeakyReLU(negative_slope=0.01)
          )
        )
      )
      (downstream_conv4): Sequential(
        (0): Conv(
          (conv): Sequential(
            (0): Conv2d(96, 48, kernel_size=(1, 1), stride=(1, 1), bias=False)
            (1): BatchNorm2d(48, eps=1e-05, momentum=0.1, affine=True, track_running_stats=True)
            (2): LeakyReLU(negative_slope=0.01)
          )
        )
        (1): Conv(
          (conv): Sequential(
            (0): Conv2d(48, 96, kernel_size=(3, 3), stride=(1, 1), padding=(1, 1), bias=False)
            (1): BatchNorm2d(96, eps=1e-05, momentum=0.1, affine=True, track_running_stats=True)
            (2): LeakyReLU(negative_slope=0.01)
          )
        )
        (2): Conv(
          (conv): Sequential(
            (0): Conv2d(96, 48, kernel_size=(1, 1), stride=(1, 1), bias=False)
            (1): BatchNorm2d(48, eps=1e-05, momentum=0.1, affine=True, track_running_stats=True)
            (2): LeakyReLU(negative_slope=0.01)
          )
        )
        (3): Conv(
          (conv): Sequential(
            (0): Conv2d(48, 96, kernel_size=(3, 3), stride=(1, 1), padding=(1, 1), bias=False)
            (1): BatchNorm2d(96, eps=1e-05, momentum=0.1, affine=True, track_running_stats=True)
            (2): LeakyReLU(negative_slope=0.01)
          )
        )
        (4): Conv(
          (conv): Sequential(
            (0): Conv2d(96, 48, kernel_size=(1, 1), stride=(1, 1), bias=False)
            (1): BatchNorm2d(48, eps=1e-05, momentum=0.1, affine=True, track_running_stats=True)
            (2): LeakyReLU(negative_slope=0.01)
          )
        )
      )
      (downstream_conv3): Sequential(
        (0): Conv(
          (conv): Sequential(
            (0): Conv2d(32, 16, kernel_size=(1, 1), stride=(1, 1), bias=False)
            (1): BatchNorm2d(16, eps=1e-05, momentum=0.1, affine=True, track_running_stats=True)
            (2): LeakyReLU(negative_slope=0.01)
          )
        )
        (1): Conv(
          (conv): Sequential(
            (0): Conv2d(16, 32, kernel_size=(3, 3), stride=(1, 1), padding=(1, 1), bias=False)
            (1): BatchNorm2d(32, eps=1e-05, momentum=0.1, affine=True, track_running_stats=True)
            (2): LeakyReLU(negative_slope=0.01)
          )
        )
        (2): Conv(
          (conv): Sequential(
            (0): Conv2d(32, 16, kernel_size=(1, 1), stride=(1, 1), bias=False)
            (1): BatchNorm2d(16, eps=1e-05, momentum=0.1, affine=True, track_running_stats=True)
            (2): LeakyReLU(negative_slope=0.01)
          )
        )
        (3): Conv(
          (conv): Sequential(
            (0): Conv2d(16, 32, kernel_size=(3, 3), stride=(1, 1), padding=(1, 1), bias=False)
            (1): BatchNorm2d(32, eps=1e-05, momentum=0.1, affine=True, track_running_stats=True)
            (2): LeakyReLU(negative_slope=0.01)
          )
        )
        (4): Conv(
          (conv): Sequential(
            (0): Conv2d(32, 16, kernel_size=(1, 1), stride=(1, 1), bias=False)
            (1): BatchNorm2d(16, eps=1e-05, momentum=0.1, affine=True, track_running_stats=True)
            (2): LeakyReLU(negative_slope=0.01)
          )
        )
      )
      (upstream_conv4): Sequential(
        (0): Conv(
          (conv): Sequential(
            (0): Conv2d(96, 48, kernel_size=(1, 1), stride=(1, 1), bias=False)
            (1): BatchNorm2d(48, eps=1e-05, momentum=0.1, affine=True, track_running_stats=True)
            (2): LeakyReLU(negative_slope=0.01)
          )
        )
        (1): Conv(
          (conv): Sequential(
            (0): Conv2d(48, 96, kernel_size=(3, 3), stride=(1, 1), padding=(1, 1), bias=False)
            (1): BatchNorm2d(96, eps=1e-05, momentum=0.1, affine=True, track_running_stats=True)
            (2): LeakyReLU(negative_slope=0.01)
          )
        )
        (2): Conv(
          (conv): Sequential(
            (0): Conv2d(96, 48, kernel_size=(1, 1), stride=(1, 1), bias=False)
            (1): BatchNorm2d(48, eps=1e-05, momentum=0.1, affine=True, track_running_stats=True)
            (2): LeakyReLU(negative_slope=0.01)
          )
        )
        (3): Conv(
          (conv): Sequential(
            (0): Conv2d(48, 96, kernel_size=(3, 3), stride=(1, 1), padding=(1, 1), bias=False)
            (1): BatchNorm2d(96, eps=1e-05, momentum=0.1, affine=True, track_running_stats=True)
            (2): LeakyReLU(negative_slope=0.01)
          )
        )
        (4): Conv(
          (conv): Sequential(
            (0): Conv2d(96, 48, kernel_size=(1, 1), stride=(1, 1), bias=False)
            (1): BatchNorm2d(48, eps=1e-05, momentum=0.1, affine=True, track_running_stats=True)
            (2): LeakyReLU(negative_slope=0.01)
          )
        )
      )
      (upstream_conv5): Sequential(
        (0): Conv(
          (conv): Sequential(
            (0): Conv2d(1280, 640, kernel_size=(1, 1), stride=(1, 1), bias=False)
            (1): BatchNorm2d(640, eps=1e-05, momentum=0.1, affine=True, track_running_stats=True)
            (2): LeakyReLU(negative_slope=0.01)
          )
        )
        (1): Conv(
          (conv): Sequential(
            (0): Conv2d(640, 1280, kernel_size=(3, 3), stride=(1, 1), padding=(1, 1), bias=False)
            (1): BatchNorm2d(1280, eps=1e-05, momentum=0.1, affine=True, track_running_stats=True)
            (2): LeakyReLU(negative_slope=0.01)
          )
        )
        (2): Conv(
          (conv): Sequential(
            (0): Conv2d(1280, 640, kernel_size=(1, 1), stride=(1, 1), bias=False)
            (1): BatchNorm2d(640, eps=1e-05, momentum=0.1, affine=True, track_running_stats=True)
            (2): LeakyReLU(negative_slope=0.01)
          )
        )
        (3): Conv(
          (conv): Sequential(
            (0): Conv2d(640, 1280, kernel_size=(3, 3), stride=(1, 1), padding=(1, 1), bias=False)
            (1): BatchNorm2d(1280, eps=1e-05, momentum=0.1, affine=True, track_running_stats=True)
            (2): LeakyReLU(negative_slope=0.01)
          )
        )
        (4): Conv(
          (conv): Sequential(
            (0): Conv2d(1280, 640, kernel_size=(1, 1), stride=(1, 1), bias=False)
            (1): BatchNorm2d(640, eps=1e-05, momentum=0.1, affine=True, track_running_stats=True)
            (2): LeakyReLU(negative_slope=0.01)
          )
        )
      )
    )
    (predict_net): PredictNet(
      (predict_conv): ModuleList(
        (0): Sequential(
          (0): Conv(
            (conv): Sequential(
              (0): Conv2d(16, 32, kernel_size=(3, 3), stride=(1, 1), padding=(1, 1), bias=False)
              (1): BatchNorm2d(32, eps=1e-05, momentum=0.1, affine=True, track_running_stats=True)
              (2): LeakyReLU(negative_slope=0.01)
            )
          )
          (1): Conv2d(32, 75, kernel_size=(1, 1), stride=(1, 1))
        )
        (1): Sequential(
          (0): Conv(
            (conv): Sequential(
              (0): Conv2d(48, 96, kernel_size=(3, 3), stride=(1, 1), padding=(1, 1), bias=False)
              (1): BatchNorm2d(96, eps=1e-05, momentum=0.1, affine=True, track_running_stats=True)
              (2): LeakyReLU(negative_slope=0.01)
            )
          )
          (1): Conv2d(96, 75, kernel_size=(1, 1), stride=(1, 1))
        )
        (2): Sequential(
          (0): Conv(
            (conv): Sequential(
              (0): Conv2d(640, 1280, kernel_size=(3, 3), stride=(1, 1), padding=(1, 1), bias=False)
              (1): BatchNorm2d(1280, eps=1e-05, momentum=0.1, affine=True, track_running_stats=True)
              (2): LeakyReLU(negative_slope=0.01)
            )
          )
          (1): Conv2d(1280, 75, kernel_size=(1, 1), stride=(1, 1))
        )
      )
    )
  )
  (_Build_Model__head_s): Yolo_head()
  (_Build_Model__head_m): Yolo_head()
  (_Build_Model__head_l): Yolo_head()
) 
[2021-06-04 10:16:49,822]-[main.py line:179]:Train datasets number is : 1 
[2021-06-04 10:16:49,822]-[main.py line:188]:        =======  start  training   ======      
[2021-06-04 10:16:51,809]-[main.py line:320]:=====Training Finished.   best_test_mAP:0.000%==== 
